Trained_models/100_percent_model.pt (torch, 17679 bytes, 3 tensors)

conv1.weight f4 [6, 500]
000000 5f 94 29 b9 d6 36 1f a9 b0 d1 37 a8 de 5a d2 ae
       -0.00016172368 -3.5352655e-14 -1.0204009e-14 -9.5658356e-11
000010 22 ae 87 a7 19 64 4a b2 95 16 3b 3f 02 14 2c ad
       -3.7658822e-15 -1.1780707e-08 0.7308133 -9.781511e-12
000020 2c 06 b1 a7 38 d2 a5 af fe 87 1b 34 7a 49 24 b8
       -4.913406e-15 -3.0162695e-10 1.4484974e-07 -3.9169077e-05
000030 70 77 aa 3b bb 04 27 33 1e 38 b2 ba e7 ee 27 bc
       0.0052022263 3.888702e-08 -0.0013597046 -0.01024983
000040 d1 ed 31 3f 28 2d 59 b5 6c ec 7f b6 d5 c2 5a ac
       0.69503504 -8.090451e-07 -3.8135577e-06 -3.1087817e-12
000050 36 fa cb 2c 1a ac 52 b2 32 26 ce 3d 25 78 c4 a8
       5.797386e-12 -1.226274e-08 0.10065879 -2.1812476e-14
000060 1e cf 2e 3a 36 13 7a ab 1f df c2 b3 8d f7 35 aa
       0.0006668436 -8.88445e-13 -9.0744145e-08 -1.6161916e-13
000070 10 e6 f9 b1 f4 72 eb ac 00 d2 0e 27 1a 70 56 b2
       -7.273009e-09 -6.691864e-12 1.98203e-15 -1.2481928e-08
000080 99 d1 46 b5 a8 45 05 bd 6c 6c 2c 23 35 ad 38 aa
       -7.406575e-07 -0.032537133 9.347098e-18 -1.6402576e-13
000090 ee fd 8d 2e 06 61 a5 26 84 1d 0f b2 60 72 3d 2c
       6.4570446e-11 1.1475473e-15 -8.330407e-09 2.6922006e-12
0000a0 eb f0 94 be b6 48 a8 aa 39 66 3f ab ee e1 2d b5
       -0.29090056 -2.9893248e-13 -6.7998694e-13 -6.4776293e-07
0000b0 4f ca 99 31 25 fc b7 28 b5 c8 4d b0 30 6d 98 a8
       4.475886e-09 2.0426432e-14 -7.486379e-10 -1.6922743e-14
0000c0 88 d1 1c bf b7 74 08 20 c4 fe be 24 f3 91 ea b0
       -0.6125722 1.1558266e-19 8.2830955e-17 -1.7067222e-09
0000d0 b8 1b 80 28 62 96 ce 2c 5e 12 b2 ab f3 db a6 a8
       1.4222876e-14 5.871568e-12 -1.2652759e-12 -1.852509e-14
0000e0 8f 0d db 29 63 67 36 b9 97 c4 63 b5 52 ad a4 30
       9.727906e-14 -0.00017395387 -8.4850166e-07 1.1981831e-09
0000f0 b5 a9 0f 23 ce 47 6d b0 f1 ab ad 38 1c d7 0f a5
       7.787982e-18 -8.632214e-10 8.2813094e-05 -1.2476155e-16
000100 7a 16 f6 bd 05 bf 8b ac 62 77 1f 29 19 96 05 b3
       -0.12016006 -3.971825e-12 3.540864e-14 -3.110299e-08
000110 b2 b9 08 af 8b 05 39 bc 0d 48 8e be f1 85 03 bd
       -1.24351e-10 -0.011292825 -0.27789345 -0.03211016
000120 09 04 96 b2 8d c9 d5 b4 df 4c 94 b8 44 c6 23 b8
       -1.7464133e-08 -3.982099e-07 -7.071508e-05 -3.9046878e-05
000130 77 59 2f bf 2f f4 bd b2 1d 4b 12 ba a0 ac a1 b8
       -0.6849589 -2.2113538e-08 -0.0005580651 -7.709232e-05
000140 2a 78 36 aa 32 46 23 b1 84 30 64 2f 1b 8a 43 bf
       -1.6206538e-13 -2.3759523e-09 2.0753715e-10 -0.7638261
000150 76 4a e1 3d 8d b3 8c b8 75 f1 ec be 5e cb 20 ac
       0.110005304 -6.709164e-05 -0.46277967 -2.285026e-12
000160 20 ca c7 be 0b ca f9 ac d2 81 55 b1 9c 04 2e bf
       -0.39021397 -7.099437e-12 -3.1069374e-09 -0.67975783
000170 4a 80 1a 36 fa e6 bb 29 a3 f8 3d bb 34 51 4b a6
       2.3022462e-06 8.344536e-14 -0.002898731 -7.0539824e-16
000180 62 32 1e ad 24 0f 1e b6 ef b1 81 a6 fb 63 2a a7
       -8.992447e-12 -2.3552648e-06 -8.999402e-16 -2.3646439e-15
000190 5b aa 6c af e5 8c 98 38 93 91 8a 32 7e f2 3d 2c
       -2.1524597e-10 7.2741685e-05 1.6131514e-08 2.6993126e-12
0001a0 f1 90 51 b3 c5 36 6b b5 0e c6 89 b7 17 74 9d ac
       -4.8793428e-08 -8.762402e-07 -1.6423899e-05 -4.475097e-12
0001b0 a4 62 2a ab b1 2f 82 aa 62 dd 7f bb fc c4 82 b4
       -6.0533024e-13 -2.3125731e-13 -0.0039041867 -2.4357712e-07
0001c0 11 a1 31 ae 8d 0e 46 b9 ff 74 50 3f 96 9d 22 b8
       -4.0388196e-11 -0.00018888172 0.8142852 -3.8770573e-05
0001d0 58 5e 36 30 90 3b e8 3b ee c5 77 b0 78 7b 57 24
       6.6345285e-10 0.0070871785 -9.013935e-10 4.6725276e-17
0001e0 1d 5c 7a b6 60 fb cc 29 75 5f 62 b3 b4 81 3d ab
       -3.730652e-06 9.1030265e-14 -5.2706543e-08 -6.732629e-13
0001f0 c0 bd 69 2b 24 aa b4 32 0d 80 6b b1 cb 67 b9 23
       8.304156e-13 2.1032129e-08 -3.426979e-09 2.0101698e-17
000200 f9 59 59 ab 77 e9 fa b0 57 bb f5 aa 14 b5 85 25
       -7.721875e-13 -1.8256249e-09 -4.3650736e-13 2.3194526e-16
000210 ec 8d 7e 31 db 98 a3 b6 32 43 8b 3e 6d b7 35 b3
       3.7042538e-09 -4.8755733e-06 0.27199703 -4.230917e-08
000220 08 e0 88 b2 f4 cf 76 b9 96 52 dc a7 6d c7 8c ac
       -1.5934361e-08 -0.00023537857 -6.1151806e-15 -4.00118e-12
000230 9d cd 2d b8 46 1d 0e bf f4 a0 3f ac a6 ac 95 ae
       -4.1437906e-05 -0.5551342 -2.723208e-12 -6.806404e-11
000240 e4 2b 3b a4 0b b7 3b 27 f3 a1 c7 36 58 7e 57 bb
       -4.0586338e-17 2.605069e-15 5.9495155e-06 -0.0032881703
000250 61 d5 97 ae ad 69 5c a9 9c 82 30 b9 ed 45 78 bb
       -6.904589e-11 -4.8941472e-14 -0.00016833324 -0.0037883476
000260 9b 8d 05 37 23 66 1a b7 ba dc cb b4 8e 52 83 ba
       7.960388e-06 -9.202896e-06 -3.7972296e-07 -0.001001911
000270 ce 31 02 30 c9 84 0c b2 66 a4 01 bd 84 e8 39 25
       4.73645e-10 -8.179264e-09 -0.031650923 1.6124972e-16
000280 94 e3 17 2d e8 ec 46 a9 ca 34 4b aa c5 37 e8 ad
       8.633889e-12 -4.4170315e-14 -1.8048337e-13 -2.6400113e-11
000290 f1 86 ab 39 91 24 8e b9 d5 53 9d b5 cc f4 15 ab
       0.000327162 -0.00027111595 -1.172181e-06 -5.327516e-13
0002a0 5c da f4 a6 f4 00 0d ac d3 c1 0f 28 e3 b4 24 ae
       -1.6990088e-15 -2.0037834e-12 7.9801236e-15 -3.7449942e-11
0002b0 b6 f2 21 ad 14 86 99 28 83 a4 44 27 b2 83 98 a4
       -9.205683e-12 1.704456e-14 2.7289646e-15 -6.614259e-17
0002c0 40 9d df 36 60 07 f3 bb 76 6b b5 b9 0a a5 2b aa
       6.664224e-06 -0.0074166507 -0.00034603075 -1.524511e-13
0002d0 20 58 e8 b1 ec ee 21 aa 77 4e 38 b3 8c 62 fa b4
       -6.7621073e-09 -1.4382565e-13 -4.2912202e-08 -4.663783e-07
0002e0 93 d8 6d 2c dd 9e 43 b3 0e 95 81 ad 46 3c 41 36
       3.3799949e-12 -4.554646e-08 -1.4731796e-11 2.8794325e-06
0002f0 ab 10 10 27 33 96 10 b0 34 8e 02 3e 8a e6 35 aa
       1.999305e-15 -5.260034e-10 0.12749559 -1.6156014e-13
000300 16 5b 3a a7 bd bd 19 bf 92 b5 bb aa 7c c2 a4 28
       -2.5862063e-15 -0.6005514 -3.3343863e-13 1.8292002e-14
000310 34 64 e2 a6 92 e6 a6 ad cf c4 99 b7 6a 29 12 33
       -1.570906e-15 -1.8974409e-11 -1.8330667e-05 3.403094e-08
000320 3d e5 4d a7 a0 db d9 35 24 03 d5 aa a2 11 70 3c
       -2.8573735e-15 1.6231679e-06 -3.783858e-13 0.0146526415
000330 52 02 ae a7 66 d7 a4 a8 7d 58 9a b7 b0 98 cb bd
       -4.8297217e-15 -1.8301072e-14 -1.8399436e-05 -0.09941232
000340 ca 68 15 b6 3a 66 ec af dc 6c 3b 3f 10 70 aa 2e
       -2.2263725e-06 -4.3000786e-10 0.7321298 7.750611e-11
000350 7a 1c 2d b2 c3 ea ee b7 06 e7 20 bd d3 aa c6 bb
       -1.00764e-08 -2.848113e-05 -0.03928282 -0.0060628443
000360 1e 0d 15 25 11 06 85 ab c0 5b 1c 36 2b 3d 9b 37
       1.2928134e-16 -9.451902e-13 2.3299217e-06 1.8505923e-05
000370 6a 5f 2d b2 24 33 a0 ae 6f f3 f1 bc 01 3f 5c b6
       -1.009162e-08 -7.285042e-11 -0.029535023 -3.2819228e-06
000380 85 ca 40 ae 8a e9 17 3b 66 51 b4 ab d4 f3 96 b9
       -4.383562e-11 0.0023179972 -1.2812362e-12 -0.00028791896
000390 c8 e0 53 36 ee 4a c2 be a0 18 d0 aa 67 d6 32 b4
       3.157229e-06 -0.37947792 -3.696531e-13 -1.6655541e-07
0003a0 e6 7a 54 b6 ee bb e2 af 08 0f 27 bc 63 96 d2 2e
       -3.1661998e-06 -4.1242693e-10 -0.010196455 9.5764084e-11
0003b0 1a b9 4e ad 01 6c c4 2c 26 39 d9 a8 4a 03 c2 be
       -1.1750845e-11 5.582646e-12 -2.4116624e-14 -0.37893134
0003c0 df dd 5f bc 14 dc d9 b8 d4 cf 02 37 47 d8 50 33
       -0.013663738 -0.00010388359 7.796993e-06 4.8625477e-08
0003d0 21 a8 9a 2b 1a 4b 39 af 35 b4 f3 28 c3 b6 b4 aa
       1.0989023e-12 -1.6852333e-10 2.7056572e-14 -3.210124e-13
0003e0 d2 45 ed a7 0e f7 6c a1 58 d2 ed b6 cc db 17 29
       -6.5856414e-15 -8.0286884e-19 -7.0876376e-06 3.371938e-14
0003f0 cc 30 25 af 9a 2d 16 b0 f8 51 f3 1f ea d1 a7 be
       -1.5023999e-10 -5.4634486e-10 1.0305011e-19 -0.3277734

conv1.bias f4 [500]
000000 d7 16 46 b9 d3 d6 91 a9 a6 dd 7b aa ac 63 e4 ae
       -0.0001889126 -6.4765596e-14 -2.2370178e-13 -1.0385945e-10
000010 03 82 06 27 c0 c4 e4 b2 0c 08 51 bf c3 31 3a ad
       1.8666715e-15 -2.6632165e-08 -0.81652904 -1.0583925e-11
000020 fe 23 a3 a7 b6 d2 c5 af 37 dc 98 31 7f b9 b5 b8
       -4.528061e-15 -3.598381e-10 4.4488178e-09 -8.665304e-05
000030 80 4a 60 bc c6 d4 76 b2 ab bf cb ba 6c 49 f5 3b
       -0.013689637 -1.4367464e-08 -0.0015544792 0.007485559
000040 93 f5 32 bf ec eb 90 b5 1b e1 8d b8 9d 4a 43 ab
       -0.69905967 -1.0797498e-06 -6.765333e-05 -6.9381463e-13
000050 20 f0 a6 ad 37 ee 69 b3 73 6d 93 3d 78 d1 55 a8
       -1.8978652e-11 -5.4466195e-08 0.0719861 -1.18692965e-14
000060 30 53 ae ba ba 2c 32 ab 87 f4 1d b4 e8 bd 10 aa
       -0.0013299938 -6.3300374e-13 -1.4710723e-07 -1.2855656e-13
000070 b4 8f 85 b4 47 32 96 ab de 55 b1 2b 5b e1 52 b3
       -2.4877738e-07 -1.0672096e-12 1.2600439e-12 -4.9099395e-08
000080 a0 0f c7 b5 d1 42 8e ba da 99 4c af 50 26 20 aa
       -1.4831203e-06 -0.0010853653 -1.8608351e-10 -1.4224147e-13
000090 d5 e3 e7 ae ee 57 1e a9 11 c9 ac b1 33 06 d8 ac
       -1.0545135e-10 -3.5159314e-14 -5.0287174e-09 -6.1397775e-12
0000a0 18 af ef 3d 40 d8 34 aa 94 b1 a3 ab 9d 8b 2d b5
       0.11703318 -1.6062238e-13 -1.1631134e-12 -6.4650686e-07
0000b0 30 96 15 30 24 bb 99 aa ef c8 92 b0 8d 8f 3f b0
       5.4419313e-10 -2.7308115e-13 -1.0680007e-09 -6.9689393e-10
0000c0 dc 46 92 3d ac 00 9b af e4 84 22 a8 cf 5f 08 b2
       0.071424216 -2.8194813e-10 -9.0216226e-15 -7.938026e-09
0000d0 9e c7 ca a9 d3 fe 0d ae 61 67 32 ad 50 d0 21 ac
       -9.00523e-14 -3.2286018e-11 -1.0141083e-11 -2.2995113e-12
0000e0 f8 75 00 ab f6 e4 08 b9 d8 5c 10 b6 e5 fb b3 b1
       -4.563845e-13 -0.00013055265 -2.1511714e-06 -5.2382227e-09
0000f0 06 dd ab a9 0d 28 31 b0 6b 95 35 b9 dc 88 94 24
       -7.632267e-14 -6.444914e-10 -0.00017317168 6.441662e-17
000100 e1 4b d4 3d 58 c6 cd ab f3 58 7d ab 57 1a 37 b2
       0.10366035 -1.4621178e-12 -9.00071e-13 -1.0657991e-08
000110 a4 30 d1 ae 2c 0f 66 bc b7 d3 87 be c4 05 d1 bd
       -9.51286e-11 -0.014041703 -0.26528713 -0.10206178
000120 ab b9 31 b2 ae 0c 16 b8 58 f5 99 b8 e6 12 0b b8
       -1.0344972e-08 -3.5774596e-05 -7.341307e-05 -3.3157783e-05
000130 00 54 94 3d 1a 19 04 b3 4a 9b e5 ba c4 85 1d ba
       0.07242584 -3.0756475e-08 -0.0017517593 -0.00060090073
000140 6e 2e 16 ac 12 57 12 b2 35 6e 67 af 82 de 8f 3d
       -2.1342056e-12 -8.518116e-09 -2.1048481e-10 0.07024862
000150 af cc 34 3d 28 ab 25 b9 a3 d9 86 3d 54 b6 c1 ad
       0.044140514 -0.00015799387 0.0658448 -2.202253e-11
000160 6f 9f 37 bc 48 70 1f ae d4 55 a1 30 c0 5d a6 3c
       -0.0112074455 -3.625214e-11 1.1738686e-09 0.020308375
000170 41 c1 62 b7 39 4d 8c aa 9d 4f bb ba 1b 47 89 a6
       -1.3515645e-05 -2.492258e-13 -0.0014290694 -9.525558e-16
000180 73 07 43 ad 78 17 43 b6 9b 5b 88 a6 18 31 14 a7
       -1.1086121e-11 -2.9070925e-06 -9.461725e-16 -2.056574e-15
000190 6d b2 9c af d8 32 bc 37 74 ab 64 32 cc 7e 97 ad
       -2.8503014e-10 2.2435022e-05 1.3310331e-08 -1.7223022e-11
0001a0 7b 97 ad b2 d6 08 45 b5 f1 34 3a b8 14 7c fb ac
       -2.0208736e-08 -7.3401077e-07 -4.439516e-05 -7.1476245e-12
0001b0 a2 6e 91 a9 c8 a0 f9 aa 3c 4e 9b b9 ad c5 77 b4
       -6.458485e-14 -4.434285e-13 -0.00029622193 -2.3075582e-07
0001c0 1b 39 27 ae 1a 2c 74 b9 8b 46 5f bf 9c f8 4b b9
       -3.8022124e-11 -0.00023286082 -0.87217015 -0.00019452203
0001d0 f9 18 0a b1 e0 cb 2f b8 21 6a 3d b0 12 b3 63 b0
       -2.0095838e-09 -4.1913125e-05 -6.890862e-10 -8.2836593e-10
0001e0 0e 2b 63 b6 ab 68 e1 a9 5c 89 bb b3 f7 a7 92 ac
       -3.3850697e-06 -1.0010164e-13 -8.7328516e-08 -4.1682174e-12
0001f0 63 19 40 ae bd 73 35 b6 70 cf 1c b1 6b e8 c4 b1
       -4.3678294e-11 -2.703847e-06 -2.2818902e-09 -5.7307736e-09
000200 08 47 80 b4 f4 fe 56 b1 64 d0 d7 29 7e 03 c9 a6
       -2.389354e-07 -3.1286023e-09 9.584068e-14 -1.3948123e-15
000210 ec ff ce b1 2e a6 ca b6 4f e2 0f bf 44 b2 1f b4
       -6.024484e-09 -6.039415e-06 -0.56204695 -1.4872882e-07
000220 29 4c 24 b2 e3 73 94 b9 34 4b 49 aa c9 dd f7 ab
       -9.563373e-09 -0.00028315102 -1.7878478e-13 -1.7611963e-12
000230 a8 65 85 b8 ec f2 94 3d 63 9a cc ac 18 5f f8 ae
       -6.360869e-05 0.07272896 -5.815169e-12 -1.1294626e-10
000240 36 e2 81 b2 9f ec 47 b3 1c c2 3a b6 14 0c 7c bb
       -1.5120445e-08 -4.6548504e-08 -2.7829146e-06 -0.0038459348
000250 3c 31 d6 2d 70 2e df 27 c1 ad 4c b9 3f 93 87 bb
       2.4350848e-11 6.194528e-15 -0.00019519684 -0.004137426
000260 20 28 90 b4 fe 99 de b9 e5 e7 f0 b6 c8 b4 ee ba
       -2.6851285e-07 -0.00042457873 -7.1795534e-06 -0.0018211836
000270 7b 81 c3 af 4a ba 11 b2 4f 7d c4 bc 3b 69 87 ad
       -3.5562295e-10 -8.482468e-09 -0.023985533 -1.5394455e-11
000280 4a a8 e1 ae 07 ff 7a a9 7a ae b6 29 b4 ea 1d ae
       -1.02617095e-10 -5.5732352e-14 8.1126905e-14 -3.5906125e-11
000290 5a 18 b4 b7 0a 17 34 ba 2c e5 ae b5 8c f9 58 ac
       -2.1469012e-05 -0.0006869888 -1.3030708e-06 -3.0833973e-12
0002a0 cb 8f da a6 e0 35 2d ac 0d b7 d2 a8 53 80 35 ae
       -1.5165764e-15 -2.4614685e-12 -2.3394069e-14 -4.126861e-11
0002b0 c0 0f 00 2d cc c5 46 a8 d9 42 1a a7 81 77 9b a6
       7.279455e-12 -1.1034098e-14 -2.1408031e-15 -1.0787677e-15
0002c0 00 f7 e4 b7 d2 d1 a1 bb 38 67 81 b9 56 25 ee a9
       -2.7294736e-05 -0.0049383426 -0.000246817 -1.05758e-13
0002d0 c6 85 b7 b2 a9 6e 9c aa 55 a0 54 b3 48 b6 76 b7
       -2.1364837e-08 -2.7787953e-13 -4.9505918e-08 -1.4705183e-05
0002e0 34 c6 4c ad 99 7d 9d b2 63 a6 c7 ad d6 3a b7 35
       -1.1640067e-11 -1.833432e-08 -2.2697571e-11 1.3651686e-06
0002f0 36 40 88 a7 5b a5 d5 b5 ea 8e 8f be 33 d3 21 ae
       -3.78172e-15 -1.5917861e-06 -0.28038722 -3.6794744e-11
000300 ac 90 1a a8 28 50 91 3d 94 3f d8 ab 92 20 26 ab
       -8.580088e-15 0.07095367 -1.536537e-12 -5.902025e-13
000310 2d 8f 36 a7 31 bb 89 ad 0b 9c 44 b8 82 65 0a b7
       -2.533519e-15 -1.5658226e-11 -4.6875368e-05 -8.249075e-06
000320 ab 66 0a 27 1f 5d 04 b6 36 90 20 b5 06 34 23 be
       1.9207004e-15 -1.9723736e-06 -5.98145e-07 -0.15937814
000330 f0 f1 9c a5 6f be e7 a8 15 51 fd b8 1a aa 95 bd
       -2.722563e-16 -2.572874e-14 -0.00012079083 -0.07307835
000340 b5 ab 99 b6 bc c9 86 b0 73 3c 2b bf bb 55 e6 b0
       -4.5797447e-06 -9.80712e-10 -0.66889113 -1.6759069e-09
000350 60 1c c6 b2 99 a3 58 b7 55 d1 b9 bc dd 24 bc bb
       -2.3063137e-08 -1.2912694e-05 -0.022682825 -0.005741699
000360 e3 45 95 a6 39 62 5a ab 7b 19 58 b5 07 e3 88 b7
       -1.0357895e-15 -7.758547e-13 -8.050335e-07 -1.6318181e-05
000370 1b b8 18 b6 2e c4 92 ae ea cf db bc fa f2 88 bb
       -2.2756929e-06 -6.67416e-11 -0.02683254 -0.0041793557
000380 21 a8 a4 b5 c6 73 d0 bc 1d 89 d8 aa 25 f2 f1 b8
       -1.2267884e-06 -0.02544583 -3.846445e-13 -0.000115368784
000390 23 d2 b6 b7 bb 31 8f 3d 0d 32 71 ad 80 01 b8 b3
       -2.1793943e-05 0.06991907 -1.37103775e-11 -8.5684405e-08
0003a0 ff ae f7 35 46 e6 a2 af 5f 6f e0 bc ae a7 a3 af
       1.8453865e-06 -2.9631247e-10 -0.027396856 -2.976867e-10
0003b0 37 a8 96 ae 15 46 f5 b4 ee fd 81 a8 2f ca 18 bf
       -6.851091e-11 -4.5685798e-07 -1.4432001e-14 -0.5968351
0003c0 67 e6 0a bb 25 9a d8 b9 02 8f 16 b7 63 08 0a b3
       -0.002119446 -0.00041313577 -8.973993e-06 -3.2138257e-08
0003d0 7d 96 82 af f0 fc d4 ae d1 2a 3d a9 c5 a8 a2 ae
       -2.375379e-10 -9.6855746e-11 -4.2003568e-14 -7.3968866e-11
0003e0 80 5e 76 a9 28 66 d0 ac 36 fe 8f b9 1d 25 c5 aa
       -5.470494e-14 -5.923057e-12 -0.00027464487 -3.5019982e-13
0003f0 fb 17 d4 ae 06 e2 c4 af 9f 0a 11 ad 3a a0 b7 be
       -9.6449036e-11 -3.5812792e-10 -8.244654e-12 -0.3586443

conv2.weight f4 [500, 1]
000000 bc 49 29 b7 c9 f9 52 27 fc 59 b4 a9 b3 61 48 2f
       -1.0090353e-05 2.9278763e-15 -8.0092156e-14 1.8224604e-10
000010 e2 a7 8e 27 57 87 34 32 bc ba 20 c0 9c 75 c8 2c
       3.9594936e-15 1.0508152e-08 -2.5113974 5.697399e-12
000020 0c 6d f0 a6 48 83 10 2e 67 3f 8d b3 ae 1a 57 b9
       -1.6682903e-15 3.285841e-11 -6.577357e-08 -0.00020513937
000030 f8 04 74 bb 46 6f 07 b4 85 65 40 3b da ce 2b bc
       -0.0037234407 -1.2613336e-07 0.0029357385 -0.010486329
000040 74 42 0c c0 18 db 5b 35 0c 35 62 b6 f5 12 85 2b
       -2.191556 8.190268e-07 -3.3707502e-06 9.45548e-13
000050 7d bb 8f 2c 1d e6 08 b3 5c f7 a8 3e 78 c1 0b a9
       4.08512e-12 -3.1874254e-08 0.3300122 -3.1032007e-14
000060 50 eb e2 b9 9f 17 07 ab 1b c8 2e 34 d7 98 a4 28
       -0.000432814 -4.7994416e-13 1.6277811e-07 1.8273941e-14
000070 10 6f 9c b4 17 3b 94 2b a1 08 06 2c 67 d2 2a b3
       -2.9138073e-07 1.0532433e-12 1.9047335e-12 -3.977257e-08
000080 62 44 d0 b5 88 df 84 bd bb 43 59 a4 b6 ee 1b 2a
       -1.551711e-06 -0.06487948 -4.7111744e-17 1.3849585e-13
000090 fa 4d 74 2e f4 dd 97 a7 6d 88 fd b0 39 e5 86 ac
       5.5548434e-11 -4.215156e-15 -1.8446947e-09 -3.833958e-12
0000a0 a7 22 32 3f bd 4b 79 aa e7 ac 90 ab 52 df ad 33
       0.69584125 -2.214192e-13 -1.0279805e-12 8.096562e-08
0000b0 6f ee 6e b1 5d 8c 83 a9 e5 50 93 30 7d 11 15 27
       -3.4769092e-09 -5.841918e-14 1.0718649e-09 2.0687384e-15
0000c0 18 b9 11 c0 db 03 0c 22 5f d7 e4 28 40 74 bf b1
       -2.2769222 1.897558e-18 2.5406487e-14 -5.5720477e-09
0000d0 0f c1 ff 28 f6 91 7f ad c6 55 d3 ac 54 10 15 2b
       2.8394413e-14 -1.4527482e-11 -6.0065035e-12 5.2958094e-13
0000e0 f7 58 22 ab 7b 96 fc b8 ec 58 1b 35 58 26 8b 2f
       -5.7677425e-13 -0.000120443256 5.78714e-07 2.5311198e-10
0000f0 d6 25 83 a1 07 3b 84 af 3f 5b 41 b9 90 96 c2 24
       -8.88692e-19 -2.4052602e-10 -0.00018439906 8.438915e-17
000100 7d fc 9a 3e 76 fa b8 2c b7 7a 3d 2b 22 54 0e 33
       0.30270758 5.2574013e-12 6.731659e-13 3.313847e-08
000110 87 28 2b ae be 3b 65 bb 7f 31 9b be 17 1f 48 be
       -3.8916894e-11 -0.0034978236 -0.303112 -0.1954311
000120 91 2b 75 b1 51 d7 a8 b3 39 f5 fa 37 d8 c4 1b b8
       -3.5676957e-09 -7.8622755e-08 2.9916513e-05 -3.7138205e-05
000130 df 1e 1d c0 31 d8 d8 b1 ce 63 94 ba 7b 47 e3 38
       -2.4550092 -6.3110055e-09 -0.0011321248 0.00010837518
000140 8d 0b 8c ab af 5f c3 b1 f2 8c c9 2f e5 e1 1c c0
       -9.950804e-13 -5.686125e-09 3.6661835e-10 -2.4512875
000150 82 6a c6 3e b3 be 19 39 3e a4 a1 3f fe 54 03 ae
       0.38753134 0.00014662258 1.2628248 -2.986144e-11
000160 37 2b b6 3f 96 93 9c ac 59 94 06 b1 99 20 15 c0
       1.4231938 -4.450172e-12 -1.9583892e-09 -2.3301146
000170 93 ec df b6 d4 80 57 a8 eb 70 96 bb 02 8a 87 26
       -6.6734588e-06 -1.1962833e-14 -0.0045910976 9.404914e-16
000180 27 a4 8d ad 16 e2 31 b6 ab 1f cf a4 94 fe d6 26
       -1.6102742e-11 -2.6506655e-06 -8.982559e-17 1.4918236e-15
000190 30 7c 84 2f b6 d9 84 b8 71 ae 67 b2 b4 16 31 2b
       2.40989e-10 -6.334802e-05 -1.3485633e-08 6.291454e-13
0001a0 11 3b f9 b1 56 86 ab 34 f0 90 b5 b9 ca 04 ac 2c
       -7.253569e-09 3.1948974e-07 -0.00034630997 4.8890657e-12
0001b0 b6 dd a2 ab f5 89 bb aa a0 f4 43 bb 74 7e e7 33
       -1.157233e-12 -3.33136e-13 -0.0029900447 1.07797774e-07
0001c0 28 c7 e3 ae 7c 4d 3d b9 0f ee 1f c0 5d 3d 78 b9
       -1.0358142e-10 -0.0001805331 -2.498905 -0.00023673983
0001d0 f6 ad 0e b1 05 a4 d7 bb 3f 38 c5 b1 57 e0 fd 32
       -2.0762605e-09 -0.006580832 -5.739849e-09 2.9555094e-08
0001e0 5b c6 b2 36 1c d3 19 a9 c7 12 f1 b2 bf dc 7d ac
       5.327905e-06 -3.4155933e-14 -2.8064632e-08 -3.6076001e-12
0001f0 de 52 74 2d 53 b8 d9 2d b2 e4 05 b1 da eb f7 b4
       1.3888194e-11 2.47519e-11 -1.9484045e-09 -4.617894e-07
000200 fc 45 f8 2e 78 39 d6 b0 47 de 01 2a a6 f8 e1 a6
       1.1290166e-10 -1.5586883e-09 1.153462e-13 -1.5679908e-15
000210 06 90 fd b0 7d b3 da 35 fd 3a 01 bf 5c 72 61 b0
       -1.8449107e-09 1.6294504e-06 -0.50480634 -8.201704e-10
000220 1f 5e 22 31 64 83 68 36 c7 70 c6 a9 7c 6b 4d 2c
       2.3627604e-09 3.4647173e-06 -8.81253e-14 2.9191918e-12
000230 d6 a9 0d b8 42 1a b5 bf dd 44 22 ac fd a2 96 2e
       -3.377519e-05 -1.4148638 -2.3059811e-12 6.850163e-11
000240 6a a7 93 35 9f db f9 34 a8 a9 a8 b6 05 b9 92 3a
       1.1001077e-06 4.653966e-07 -5.0265407e-06 0.0011194056
000250 ed 07 91 2e 7a 7b 74 28 02 ce 1d b7 9c 30 44 bb
       6.5952445e-11 1.3571496e-14 -9.405894e-06 -0.00299362
000260 a3 ef e2 39 eb d7 11 36 a4 10 a6 b6 76 ce d2 ba
       0.00043284622 2.1732365e-06 -4.9491227e-06 -0.0016083259
000270 90 f2 b4 2f 7e 8e 80 32 f6 e5 b1 3d 19 67 ea 28
       3.291416e-10 1.496596e-08 0.0868644 2.602393e-14
000280 2e 28 26 ad 29 9f ab a8 f0 1c 76 a7 9b 1f ac 2d
       -9.444929e-12 -1.9053838e-14 -3.4155045e-15 1.9568172e-11
000290 c0 84 63 b9 96 59 c8 b9 a4 20 5a b5 f8 c5 3d ab
       -0.0002169786 -0.0003821372 -8.1258827e-07 -6.7421025e-13
0002a0 24 0d a1 27 98 f2 21 ab 85 ae a0 a7 23 0d 96 ad
       4.4700724e-15 -5.7535357e-13 -4.4598135e-15 -1.705886e-11
0002b0 52 bd 1c 2d e5 63 56 a7 e7 e8 a1 27 c6 8e 98 a5
       8.909611e-12 -2.9752619e-15 4.493899e-15 -2.6464544e-16
0002c0 ca cb 60 b9 43 2b 4f bc 1b 70 db 39 fc e6 19 aa
       -0.00021438222 -0.012644592 0.0004185446 -1.3669269e-13
0002d0 3e b7 7b b2 42 9e db 29 aa b0 1a b2 a9 c9 6a 36
       -1.4651787e-08 9.753007e-14 -9.0041485e-09 3.4986099e-06
0002e0 6a 8b 9c ac 78 6e a3 b2 18 e7 b7 ae 8a 08 cd b5
       -4.4492647e-12 -1.9025933e-08 -8.362927e-11 -1.5276175e-06
0002f0 b3 57 a4 26 85 34 bf b5 c3 26 23 bd 82 1d cc 2f
       1.1403557e-15 -1.4245894e-06 -0.039831888 3.712835e-10
000300 21 e9 8d 27 1b 5b 15 c0 73 f5 98 ab d7 ea cf aa
       3.938812e-15 -2.3336856 -1.0868375e-12 -3.693354e-13
000310 6e cb 4e a7 78 8b d1 ad c3 84 5b b8 18 77 4c 2b
       -2.8698522e-15 -2.3822486e-11 -5.2337313e-05 7.2640635e-13
000320 66 68 03 27 e1 a4 b3 35 e3 e4 91 37 04 f9 55 3d
       1.8236497e-15 1.3384525e-06 1.739193e-05 0.052239433
000330 b0 9b 10 a8 de d9 e3 a9 b1 ba 0b 38 a2 ee 19 bb
       -8.027365e-15 -1.0118619e-13 3.3314052e-05 -0.0023488184
000340 03 8a 7e b7 dc 11 33 b0 0c f9 f1 bf 07 0b 4a b0
       -1.5171713e-05 -6.51452e-10 -1.8904128 -7.350284e-10
000350 0f d9 81 b1 43 71 de b6 f8 c8 5f bb 24 3e 25 3a
       -3.779071e-09 -6.629301e-06 -0.0034146886 0.000630351
000360 23 a5 74 26 1d f9 99 ab 28 de 52 35 84 f1 53 b8
       8.487831e-16 -1.0940447e-12 7.8554376e-07 -5.053125e-05
000370 d3 b4 87 31 ad e3 e1 ac dc d8 53 3b bd 9a eb b4
       3.9495744e-09 -6.4201617e-12 0.0032325303 -4.3884748e-07
000380 41 a2 a4 38 c5 2a 3d b8 47 f0 d3 2a 7b 7e 02 39
       7.8503515e-05 -4.5100944e-05 3.7647855e-13 0.00012444884
000390 62 59 94 38 61 80 5a 3f e9 73 9d 2c a2 fb 68 b3
       7.073839e-05 0.8535214 4.475077e-12 -5.4245568e-08
0003a0 b2 fb fb 35 f0 a4 a2 2e 02 03 3c 3c 85 bd 66 2f
       1.877421e-06 7.396206e-11 0.0114753265 2.0985709e-10
0003b0 fa ef 22 2e ef 61 06 b2 34 e0 f2 a7 2c e4 49 be
       3.7047677e-11 -7.822094e-09 -6.7411575e-15 -0.19715947
0003c0 c8 b4 01 3c 69 5e 82 b9 23 bb 3d 37 34 c0 27 b3
       0.007916637 -0.00024865873 1.1308849e-05 -3.9057525e-08
0003d0 0c d6 69 25 c1 9c 52 2f b4 23 90 a7 60 d0 43 2e
       2.028205e-16 1.9155079e-10 -4.000674e-15 4.452294e-11
0003e0 33 0f 0b a8 5f 66 cd b2 d2 2f 86 b7 08 c8 93 aa
       -7.719346e-15 -2.3911694e-08 -1.5996313e-05 -2.6251245e-13
0003f0 f0 7e 23 af b0 8e 8b 2f d4 30 7e 2a b7 96 5b be
       -1.4869861e-10 2.5385338e-10 2.2576673e-13 -0.21444212
