Trained_models/faux_behave_level.pt (torch, 7151 bytes, 7 tensors)

conv1.att_l f4 [1, 1, 50]
00000000: 6f34 5dbe 4031 2b3f 5537 f63e 9913 2dbf
00000010: 55b5 bf3e e04b 0bbf 6879 4dbe cab4 443f
00000020: fec0 c13e 2cf3 76be 0eb1 723e e3e5 ae3e
00000030: b4ae d2bd 8928 57be 92d9 983e a415 053f
00000040: d953 a73d e091 5bbe bed9 fcbc 8435 9e3e
00000050: 51b2 ab3e 4a75 0d3f 337f b3be b502 1abd
00000060: 67d6 dd3e 2e74 9abb 4c99 16be 0d13 fb3d
00000070: 8bba d73e 2455 85be 57df f23e 6588 07bf
00000080: 431f 23bf e899 bb3c df9f 633e 44de babe
00000090: 4e77 7f3e 09df 183f aea7 8cbe 1ea6 093f
000000a0: 7533 cb3d 0dd3 c43e bacb f43e 3579 d8be
000000b0: 3624 393f 3f47 9c3e 57a7 9b3d e26d bd3e
000000c0: bf78 a23e d402 10bf
-0.21602033 0.66872025 0.4808909 -0.6760803 0.37443033 -0.5441265 -0.20065844 0.7683836
0.37842554 -0.241162 0.23700354 0.34159765 -0.10287228 -0.21011557 0.29853493 0.51986146
0.081702895 -0.21442366 -0.030865546 0.30900204 0.33534482 0.55257094 -0.35057983 -0.037600238
0.43327639 -0.0047135567 -0.14706916 0.12259493 0.42134508 -0.2604152 0.4743602 -0.52942497
-0.63719577 0.022900537 0.22228955 -0.364977 0.24947855 0.59715325 -0.2747168 0.537691
0.09921924 0.3844227 0.4781168 -0.42279974 0.7232088 0.30523106 0.07600277 0.36997896
0.31732747 -0.56254315

conv1.att_r f4 [1, 1, 50]
00000000: c9c0 bb3e 90eb 8abe 6efe 603e 0e45 fabd
00000010: 6c79 003e f919 93be b4b9 35be f040 333e
00000020: 7dc6 f93e a8b9 67be 9d5c cfbe ad5a de3e
00000030: 9d7d 15be ec49 31bf 1be4 c1bd ce07 163e
00000040: 157d 863e 7097 f3be dd36 d63e 0144 5bbc
00000050: 7405 a0bd e241 7b3e 9e73 41be 56b3 fb3e
00000060: 615c f13e 45ff 80bd 2e60 17be 38b2 d83e
00000070: 2a3e 0b3f b52a 803e 28ac 683d 5a77 cfbe
00000080: 8cf2 a7be 8e82 6ebe 4e61 533e b25e 75be
00000090: 97ad 833e 26f5 c63d 35fc 02bf e8c8 7d3e
000000a0: 4ffe 34be 5e8a 8cbe 5c77 abbd 0ad2 febe
000000b0: 78bf 1a3f 0440 d93e e5c7 2cbd 8692 b8be
000000c0: 14b4 2f3e f549 c23b
0.3667052 -0.27132845 0.21972057 -0.122202024 0.12546319 -0.28730753 -0.17746621 0.1750524
0.48784247 -0.22629416 -0.40500346 0.43428555 -0.14598699 -0.6925342 -0.09467336 0.14651415
0.26267305 -0.47576475 0.41838732 -0.013382913 -0.0781354 0.24536851 -0.1889176 0.4916026
0.47140792 -0.06298689 -0.14782783 0.4232347 0.5439173 0.25032583 0.056804806 -0.40520746
-0.32802236 -0.2329199 0.20642588 -0.23961905 0.25718376 0.09714727 -0.5116609 0.24783671
-0.17675136 -0.27449316 -0.08372375 -0.49769622 0.6044841 0.42431653 -0.04218282 -0.3604929
0.17158538 0.0059292265

conv1.bias f4 [50]
00000000: df4c bebd ccf6 b7bd c0b6 9fbd 898c 7ebd
00000010: 0fd8 a6bd 4ee7 183f 11c2 743e ecb6 99bd
00000020: f84c d5bd cdc5 87bd 551b 00be 05be 16bc
00000030: 5136 8dbe 3b10 a03e 7bab 1ebf b937 a1bd
00000040: 9e21 373e fde8 1fbe e241 07bc 945a b4bc
00000050: 681a 2abc 6d1b c1be f0a4 e7bd 7c58 f4bc
00000060: aefc 15bd 5fc1 6abe c332 a33e 832f f1bc
00000070: f645 1b3d 4f1c 22bd 849f eebb 277a 6cbe
00000080: 9c8d 90bd 5cb1 61be ff0d f43c 81ae dcbc
00000090: 9e0f f6bd 95b5 8f3e bd1a eb3e f218 3d3d
000000a0: 589e 813e ac03 69be 9631 01be 35f0 a8be
000000b0: 452e 03be afc4 25bd edbd 56be 1112 5d3e
000000c0: 0015 50bd 07c2 8fbd
-0.09292006 -0.0898262 -0.07798529 -0.062145744 -0.08146679 0.5972794 0.23902155 -0.07505593
-0.10415071 -0.066295244 -0.12510426 -0.009200578 -0.27580503 0.31262383 -0.6198041 -0.078719564
0.17883918 -0.15616222 -0.008255454 -0.022015847 -0.010382272 -0.37716237 -0.11310756 -0.029827349
-0.036617927 -0.22925328 0.31874666 -0.0294416 0.037908517 -0.03957778 -0.0072821993 -0.23093472
-0.0705826 -0.22040313 0.02979183 -0.026938679 -0.120146975 0.28068224 0.45918837 0.046166368
0.2531612 -0.22755307 -0.12616572 -0.32995763 -0.12810619 -0.040470775 -0.20970888 0.21588923
-0.050801277 -0.0701943

conv1.lin_l.weight f4 [50, 16]
00000000: 9d82 e63a bad2 22bf 8361 32bf 181d 943c
00000010: fb1b 283f e92c 083f d6b0 2fbc 9c5e d63e
00000020: 73f2 08bf 3125 843d 2aee a43e edae 993e
00000030: eec7 c43d 08c5 c5bd 10e6 5bbd b8ba 853e
00000040: 899d 2ebf 866e 9abc ba3f 453f 885f a43e
00000050: 6a2f 17bf eac2 39bf be3e 773e 1411 383e
00000060: 299a cfbe 1836 dabe 54ae 873e 5ca9 4f3d
00000070: 92a2 af3e 2e94 90be c1cb 88be 479a df3e
00000080: a5fc 26bf dd0c 58be f0b8 28be 830d 9e3d
00000090: a4a1 8c3e 5c95 2dbf 36a9 c73e 1d93 c03d
000000a0: e679 713e b096 d03e 0b6e 183e 1c7d 37bc
000000b0: 65b4 6d3e 204d b63e 8eca dbbd 6352 8f3c
000000c0: 3165 033e f986 133e 92ae 7dbf 551b 45bf
000000d0: 0c24 b4be bc91 84be 91df 46be 7093 81bf
000000e0: f59d a53e 3f99 923d c412 43be b02c 87be
000000f0: 619d 50bd 92c3 3cbf 0078 1dbe 9e14 1a3d
00000100: 3c7f 11bf 932d a5bc 2cce 823d 4012 5bbb
00000110: ed52 cb3e b5eb 7dbf 4b12 f4bd 5808 2c3c
00000120: 4c41 de3e 031a b73e 0829 c8bd 6c48 9bbe
00000130: b3ae 6c3e f142 0e3f c4f6 cd3e 1107 973d
00000140: 2d74 cbbd fcd4 06be c13e bb3e 01d0 55bf
00000150: 2559 dbbe b1be e1be f903 26bf d21a 0abe
00000160: e65f f6be 95ca 19bf 2eec 7fbe 4b7e 3fbe
00000170: b232 25be fb81 4bbf a8ca 1bbf a811 f0bd
00000180: d27f 993d e805 49be b4ef f0be 1649 4bbf
00000190: 7cde 9ebd e40f 403f 1f7c a1be 161e 27bf
000001a0: 4114 483e c379 023e bd5c 15bf e5a7 fabe
000001b0: ada4 e2be 3b85 633e 145d 4a3e 27fb 04bf
000001c0: fcea 4dbf 4495 0cbe d0f9 1c3f 75d6 693e
000001d0: 2177 08bf 7e6a a83d 29e7 513e fcdd 043e
000001e0: 1846 9ebd 5635 78be 8304 843e 3c7b 35be
000001f0: 1fc4 6e3e 466d 23be 4b45 2dbe e257 9d3e
00000200: d5bd 55bf d482 8f3e 2b28 3abd 51c8 b63e
00000210: dcbf 2a3e 21c5 163e 77a3 7abd a1f0 103e
00000220: edb2 ab3e 142d 9ebd 489e de3c 77ee 023d
00000230: 2623 643e a0f0 363d b080 453e 9cd1 6e3e
00000240: d43e 833e 90ad 29be e3d4 cdbe cc01 4b3d
00000250: 7071 8b3e 09e1 1cbe e963 193c ccc4 7ebf
00000260: b168 10bf adca 8ebe 873f 593c 74d3 a8be
00000270: b52f a4be f2d3 f53c 2e07 973e 3d89 89bd
00000280: 8791 65bd 6043 cfbe 0195 0f3f fe90 233f
00000290: ac05 24bf 2aa2 3cbf 3df3 adbd 37f8 55be
000002a0: b905 a23e c13b 813e 18a8 b7be 29ac 943d
000002b0: 9be9 a7be 9923 363e 4062 c93e 0dac 9ebe
000002c0: 3346 16be ffd7 923c 46e6 3bbf 92bc ab3e
000002d0: 17d2 953e c637 1ebe 4b60 be3e 4f71 af3e
000002e0: 8116 143d 2452 8d3e 2b11 1c3e 9b57 ec3e
000002f0: 3fb7 d43e 6958 2f3e 05cb 5c3e 8537 d63e
00000300: ebfb 453e f6b1 b3be d139 70bd ab22 05bf
00000310: 2c75 453e 3377 1b3f 1781 463e dca9 053e
00000320: 5cc8 1dbf 41ed 80be 2750 c43d 4afd 143d
00000330: 82b1 5c3e a8d9 b0be 1266 06bf bdcb 7f3e
00000340: f891 853d bae6 313b 3064 ed3e 1384 fd3d
00000350: 5d00 46be 25a9 ebbe c76a e8be 4c7b a33c
00000360: f75c 0cbe 7479 82be 7018 53bc f1ff b2be
00000370: 888d 0dbd 8267 edbe 0c42 15bf 5bb8 d53d
00000380: 7036 54bf 8c50 e23c 0344 933e 05c8 d83d
00000390: be65 f6bb cd30 983c 454e 703e 0731 ad3e
000003a0: 0be0 a33e 7a05 efbd 1f72 adbd eb9a 393e
000003b0: f3ad 883e 8091 693d 121e b13a 0a01 ecbd
000003c0: 30ad 29bf c8a0 f33d 7086 51bc 67ee c63d
000003d0: 5421 bb3e e6e3 393e 85d8 ce3d 19e3 e03e
000003e0: e0b4 87be df68 953d 98e1 213d 8cb1 5a3e
000003f0: 1685 0c3e b3ca be3c 38fe 903e 2e82 d8bd
0.0017586533 -0.63602793 -0.6968004 0.01808028 0.65667695 0.5319353 -0.010723313 0.41869056
-0.5349495 0.06452406 0.32212955 0.3001627 0.09608446 -0.09656721 -0.0536862 0.26119018
-0.6820913 -0.01885153 0.77050364 0.32104135 -0.59056723 -0.7256304 0.24145028 0.17975265
-0.40547302 -0.42619395 0.2650019 0.050698623 0.3430372 -0.28238052 -0.26717952 0.43672392
-0.65229255 -0.21098657 -0.16476798 0.07717421 0.27467072 -0.6780603 0.38996285 0.0940306
0.23581657 0.40739965 0.14885728 -0.011199262 0.23213346 0.35605717 -0.107319936 0.01749534
0.1283157 0.14406957 -0.990945 -0.7699483 -0.35183752 -0.25892437 -0.19421221 -1.0123119
0.32347074 0.071581356 -0.19050127 -0.2640128 -0.05093134 -0.73735917 -0.15377808 0.03761732
-0.5683477 -0.020163333 0.063869804 -0.0033427626 0.39711705 -0.99187785 -0.119175516 0.010500036
0.43409193 0.35762033 -0.09773451 -0.3032869 0.23113517 0.55570894 0.4022733 0.07374395
-0.09934268 -0.13167185 0.36571315 -0.83520514 -0.4284145 -0.44090798 -0.6484981 -0.13486794
-0.4812004 -0.6007474 -0.24992439 -0.1870052 -0.1613262 -0.7949521 -0.60856104 -0.11722118
0.07495083 -0.1963116 -0.4705788 -0.79408395 -0.07757279 0.7502425 -0.3154001 -0.6528028
0.19538976 0.12741761 -0.5834463 -0.48956218 -0.44266263 0.22218792 0.19762069 -0.5194573
-0.8043668 -0.13728815 0.61318684 0.22835715 -0.53306776 0.08223437 0.20498337 0.12975305
-0.07728213 -0.24239096 0.25784692 -0.17722791 0.23317002 -0.15959653 -0.16920964 0.30731112
-0.83492786 0.280295 -0.045448463 0.35699704 0.16674751 0.14723636 -0.06119105 0.14154293
0.33534947 -0.07723442 0.027175084 0.0319657 0.22279033 0.04466307 0.19287372 0.23322147
0.25633872 -0.16570115 -0.40201482 0.04956226 0.27234983 -0.15320219 0.009362199 -0.9951904
-0.56409746 -0.27889004 0.013259775 -0.32973826 -0.32067648 0.03000829 0.29497665 -0.06715629
-0.05604699 -0.4048109 0.56086737 0.63893116 -0.64071155 -0.7368494 -0.0849366 -0.20895468
0.3164499 0.252409 -0.35870433 0.072593994 -0.32795414 0.17787017 0.3933277 -0.3099064
-0.14675216 0.01792526 -0.73398244 0.33542305 0.29261848 -0.15450963 0.3718284 0.34266135
0.036154274 0.2760173 0.15240924 0.46160588 0.41546056 0.1712357 0.21561821 0.41839233
0.1933438 -0.3509671 -0.058648888 -0.52006024 0.19282979 0.6072876 0.19385181 0.13053077
-0.6163385 -0.2518101 0.095856 0.036374368 0.21552089 -0.3454106 -0.52499497 0.24980064
0.06521982 0.002714558 0.463655 0.12378707 -0.19336076 -0.46027485 -0.45393965 0.019956253
-0.13707338 -0.25483286 -0.012884244 -0.34960893 -0.034558803 -0.46368033 -0.58303905 0.10435554
-0.82895565 0.027626298 0.28762826 0.10585026 -0.007519453 0.018577958 0.23467357 0.33826467
0.3200687 -0.116709664 -0.084690325 0.18125503 0.26695213 0.057023525 0.001351299 -0.11523636
-0.6627989 0.11895901 -0.0127884 0.097134404 0.36548865 0.18153343 0.100998916 0.43923262
-0.26505184 0.07295393 0.039521784 0.21356791 0.13722643 0.023290014 0.28318954 -0.10571705

conv1.lin_r.weight f4 [50, 16]
00000000: 9d82 e63a bad2 22bf 8361 32bf 181d 943c
00000010: fb1b 283f e92c 083f d6b0 2fbc 9c5e d63e
00000020: 73f2 08bf 3125 843d 2aee a43e edae 993e
00000030: eec7 c43d 08c5 c5bd 10e6 5bbd b8ba 853e
00000040: 899d 2ebf 866e 9abc ba3f 453f 885f a43e
00000050: 6a2f 17bf eac2 39bf be3e 773e 1411 383e
00000060: 299a cfbe 1836 dabe 54ae 873e 5ca9 4f3d
00000070: 92a2 af3e 2e94 90be c1cb 88be 479a df3e
00000080: a5fc 26bf dd0c 58be f0b8 28be 830d 9e3d
00000090: a4a1 8c3e 5c95 2dbf 36a9 c73e 1d93 c03d
000000a0: e679 713e b096 d03e 0b6e 183e 1c7d 37bc
000000b0: 65b4 6d3e 204d b63e 8eca dbbd 6352 8f3c
000000c0: 3165 033e f986 133e 92ae 7dbf 551b 45bf
000000d0: 0c24 b4be bc91 84be 91df 46be 7093 81bf
000000e0: f59d a53e 3f99 923d c412 43be b02c 87be
000000f0: 619d 50bd 92c3 3cbf 0078 1dbe 9e14 1a3d
00000100: 3c7f 11bf 932d a5bc 2cce 823d 4012 5bbb
00000110: ed52 cb3e b5eb 7dbf 4b12 f4bd 5808 2c3c
00000120: 4c41 de3e 031a b73e 0829 c8bd 6c48 9bbe
00000130: b3ae 6c3e f142 0e3f c4f6 cd3e 1107 973d
00000140: 2d74 cbbd fcd4 06be c13e bb3e 01d0 55bf
00000150: 2559 dbbe b1be e1be f903 26bf d21a 0abe
00000160: e65f f6be 95ca 19bf 2eec 7fbe 4b7e 3fbe
00000170: b232 25be fb81 4bbf a8ca 1bbf a811 f0bd
00000180: d27f 993d e805 49be b4ef f0be 1649 4bbf
00000190: 7cde 9ebd e40f 403f 1f7c a1be 161e 27bf
000001a0: 4114 483e c379 023e bd5c 15bf e5a7 fabe
000001b0: ada4 e2be 3b85 633e 145d 4a3e 27fb 04bf
000001c0: fcea 4dbf 4495 0cbe d0f9 1c3f 75d6 693e
000001d0: 2177 08bf 7e6a a83d 29e7 513e fcdd 043e
000001e0: 1846 9ebd 5635 78be 8304 843e 3c7b 35be
000001f0: 1fc4 6e3e 466d 23be 4b45 2dbe e257 9d3e
00000200: d5bd 55bf d482 8f3e 2b28 3abd 51c8 b63e
00000210: dcbf 2a3e 21c5 163e 77a3 7abd a1f0 103e
00000220: edb2 ab3e 142d 9ebd 489e de3c 77ee 023d
00000230: 2623 643e a0f0 363d b080 453e 9cd1 6e3e
00000240: d43e 833e 90ad 29be e3d4 cdbe cc01 4b3d
00000250: 7071 8b3e 09e1 1cbe e963 193c ccc4 7ebf
00000260: b168 10bf adca 8ebe 873f 593c 74d3 a8be
00000270: b52f a4be f2d3 f53c 2e07 973e 3d89 89bd
00000280: 8791 65bd 6043 cfbe 0195 0f3f fe90 233f
00000290: ac05 24bf 2aa2 3cbf 3df3 adbd 37f8 55be
000002a0: b905 a23e c13b 813e 18a8 b7be 29ac 943d
000002b0: 9be9 a7be 9923 363e 4062 c93e 0dac 9ebe
000002c0: 3346 16be ffd7 923c 46e6 3bbf 92bc ab3e
000002d0: 17d2 953e c637 1ebe 4b60 be3e 4f71 af3e
000002e0: 8116 143d 2452 8d3e 2b11 1c3e 9b57 ec3e
000002f0: 3fb7 d43e 6958 2f3e 05cb 5c3e 8537 d63e
00000300: ebfb 453e f6b1 b3be d139 70bd ab22 05bf
00000310: 2c75 453e 3377 1b3f 1781 463e dca9 053e
00000320: 5cc8 1dbf 41ed 80be 2750 c43d 4afd 143d
00000330: 82b1 5c3e a8d9 b0be 1266 06bf bdcb 7f3e
00000340: f891 853d bae6 313b 3064 ed3e 1384 fd3d
00000350: 5d00 46be 25a9 ebbe c76a e8be 4c7b a33c
00000360: f75c 0cbe 7479 82be 7018 53bc f1ff b2be
00000370: 888d 0dbd 8267 edbe 0c42 15bf 5bb8 d53d
00000380: 7036 54bf 8c50 e23c 0344 933e 05c8 d83d
00000390: be65 f6bb cd30 983c 454e 703e 0731 ad3e
000003a0: 0be0 a33e 7a05 efbd 1f72 adbd eb9a 393e
000003b0: f3ad 883e 8091 693d 121e b13a 0a01 ecbd
000003c0: 30ad 29bf c8a0 f33d 7086 51bc 67ee c63d
000003d0: 5421 bb3e e6e3 393e 85d8 ce3d 19e3 e03e
000003e0: e0b4 87be df68 953d 98e1 213d 8cb1 5a3e
000003f0: 1685 0c3e b3ca be3c 38fe 903e 2e82 d8bd
0.0017586533 -0.63602793 -0.6968004 0.01808028 0.65667695 0.5319353 -0.010723313 0.41869056
-0.5349495 0.06452406 0.32212955 0.3001627 0.09608446 -0.09656721 -0.0536862 0.26119018
-0.6820913 -0.01885153 0.77050364 0.32104135 -0.59056723 -0.7256304 0.24145028 0.17975265
-0.40547302 -0.42619395 0.2650019 0.050698623 0.3430372 -0.28238052 -0.26717952 0.43672392
-0.65229255 -0.21098657 -0.16476798 0.07717421 0.27467072 -0.6780603 0.38996285 0.0940306
0.23581657 0.40739965 0.14885728 -0.011199262 0.23213346 0.35605717 -0.107319936 0.01749534
0.1283157 0.14406957 -0.990945 -0.7699483 -0.35183752 -0.25892437 -0.19421221 -1.0123119
0.32347074 0.071581356 -0.19050127 -0.2640128 -0.05093134 -0.73735917 -0.15377808 0.03761732
-0.5683477 -0.020163333 0.063869804 -0.0033427626 0.39711705 -0.99187785 -0.119175516 0.010500036
0.43409193 0.35762033 -0.09773451 -0.3032869 0.23113517 0.55570894 0.4022733 0.07374395
-0.09934268 -0.13167185 0.36571315 -0.83520514 -0.4284145 -0.44090798 -0.6484981 -0.13486794
-0.4812004 -0.6007474 -0.24992439 -0.1870052 -0.1613262 -0.7949521 -0.60856104 -0.11722118
0.07495083 -0.1963116 -0.4705788 -0.79408395 -0.07757279 0.7502425 -0.3154001 -0.6528028
0.19538976 0.12741761 -0.5834463 -0.48956218 -0.44266263 0.22218792 0.19762069 -0.5194573
-0.8043668 -0.13728815 0.61318684 0.22835715 -0.53306776 0.08223437 0.20498337 0.12975305
-0.07728213 -0.24239096 0.25784692 -0.17722791 0.23317002 -0.15959653 -0.16920964 0.30731112
-0.83492786 0.280295 -0.045448463 0.35699704 0.16674751 0.14723636 -0.06119105 0.14154293
0.33534947 -0.07723442 0.027175084 0.0319657 0.22279033 0.04466307 0.19287372 0.23322147
0.25633872 -0.16570115 -0.40201482 0.04956226 0.27234983 -0.15320219 0.009362199 -0.9951904
-0.56409746 -0.27889004 0.013259775 -0.32973826 -0.32067648 0.03000829 0.29497665 -0.06715629
-0.05604699 -0.4048109 0.56086737 0.63893116 -0.64071155 -0.7368494 -0.0849366 -0.20895468
0.3164499 0.252409 -0.35870433 0.072593994 -0.32795414 0.17787017 0.3933277 -0.3099064
-0.14675216 0.01792526 -0.73398244 0.33542305 0.29261848 -0.15450963 0.3718284 0.34266135
0.036154274 0.2760173 0.15240924 0.46160588 0.41546056 0.1712357 0.21561821 0.41839233
0.1933438 -0.3509671 -0.058648888 -0.52006024 0.19282979 0.6072876 0.19385181 0.13053077
-0.6163385 -0.2518101 0.095856 0.036374368 0.21552089 -0.3454106 -0.52499497 0.24980064
0.06521982 0.002714558 0.463655 0.12378707 -0.19336076 -0.46027485 -0.45393965 0.019956253
-0.13707338 -0.25483286 -0.012884244 -0.34960893 -0.034558803 -0.46368033 -0.58303905 0.10435554
-0.82895565 0.027626298 0.28762826 0.10585026 -0.007519453 0.018577958 0.23467357 0.33826467
0.3200687 -0.116709664 -0.084690325 0.18125503 0.26695213 0.057023525 0.001351299 -0.11523636
-0.6627989 0.11895901 -0.0127884 0.097134404 0.36548865 0.18153343 0.100998916 0.43923262
-0.26505184 0.07295393 0.039521784 0.21356791 0.13722643 0.023290014 0.28318954 -0.10571705

conv2.lin_l.weight f4 [1, 50]
00000000: a44c c73e cfe6 11bf 843c e53d 3b24 233e
00000010: 0fd9 1a3e 5d3a 49bf 33b0 55bf 7dd4 c4be
00000020: da18 153d ff53 573e 8419 053f ad19 e33e
00000030: 53bd 213e 996d 87be 3454 2f3c f393 a53d
00000040: 00a9 5dbe 476e 5d3e 40c0 a33e 2761 e9bc
00000050: 63bd 833e 72d9 4d3c 84ac b73e 1970 eb3d
00000060: 5c55 973e 3e93 0dbf b82b 8ebe 0f84 573e
00000070: 1473 c73e ef1b 1c3f db53 ac3e 470f 4b3b
00000080: b119 433e 3cdf cb3d 9aa9 bd3e 569a 243f
00000090: 9110 1c3e 8ae9 bcbe c740 48bf 1958 c73e
000000a0: eb45 10bf 34f3 fabe e8be 9e3e be16 2e3d
000000b0: 8b9c 163d 5920 123e e8e5 953a fee7 5cbe
000000c0: 70db cb3d 98ed 523e
0.3892566 -0.5699281 0.11193183 0.1593179 0.15121864 -0.7860468 -0.83471984 -0.38443366
0.036400653 0.21028136 0.5199206 0.44355527 0.15794878 -0.26450804 0.010701228 0.0808486
-0.216465 0.21624099 0.31982613 -0.028488709 0.25730428 0.01256405 0.35873806 0.1149599
0.29557312 -0.553028 -0.2776773 0.2104647 0.38954985 0.60980123 0.33657727 0.0030984448
0.19052769 0.09954688 0.37043458 0.64298 0.15240695 -0.36896926 -0.7822384 0.389344
-0.56356686 -0.49013674 0.31005025 0.042502157 0.036770385 0.14270152 0.0011436315 -0.21572873
0.09953964 0.20598447

conv2.lin_r.weight f4 [1, 50]
00000000: a44c c73e cfe6 11bf 843c e53d 3b24 233e
00000010: 0fd9 1a3e 5d3a 49bf 33b0 55bf 7dd4 c4be
00000020: da18 153d ff53 573e 8419 053f ad19 e33e
00000030: 53bd 213e 996d 87be 3454 2f3c f393 a53d
00000040: 00a9 5dbe 476e 5d3e 40c0 a33e 2761 e9bc
00000050: 63bd 833e 72d9 4d3c 84ac b73e 1970 eb3d
00000060: 5c55 973e 3e93 0dbf b82b 8ebe 0f84 573e
00000070: 1473 c73e ef1b 1c3f db53 ac3e 470f 4b3b
00000080: b119 433e 3cdf cb3d 9aa9 bd3e 569a 243f
00000090: 9110 1c3e 8ae9 bcbe c740 48bf 1958 c73e
000000a0: eb45 10bf 34f3 fabe e8be 9e3e be16 2e3d
000000b0: 8b9c 163d 5920 123e e8e5 953a fee7 5cbe
000000c0: 70db cb3d 98ed 523e
0.3892566 -0.5699281 0.11193183 0.1593179 0.15121864 -0.7860468 -0.83471984 -0.38443366
0.036400653 0.21028136 0.5199206 0.44355527 0.15794878 -0.26450804 0.010701228 0.0808486
-0.216465 0.21624099 0.31982613 -0.028488709 0.25730428 0.01256405 0.35873806 0.1149599
0.29557312 -0.553028 -0.2776773 0.2104647 0.38954985 0.60980123 0.33657727 0.0030984448
0.19052769 0.09954688 0.37043458 0.64298 0.15240695 -0.36896926 -0.7822384 0.389344
-0.56356686 -0.49013674 0.31005025 0.042502157 0.036770385 0.14270152 0.0011436315 -0.21572873
0.09953964 0.20598447
