Trained_models/faux_behave_level.pt (torch, 5711 bytes, 3 tensors)

conv1.weight f4 [18, 50]
-5.716253e-23 -7.538974e-08 1.8608787e-20 -0.027124919 -8.164885e-05 -0.16806269 -0.0004459035 -7.605841e-05
-0.0844863 -0.15002164 -1.1332222e-05 0.0057785693 -0.008486264 -1.2671861e-12 -0.010430404 0.019997967
0.008325495 2.60173e-06 -2.401017e-07 -0.0019302336 -0.0177344 -0.0035871475 -1.6145467e-22 -0.09943403
-0.23334146 -0.017277976 -0.0017787808 -0.23229355 3.6411472e-19 0.0005515387 0.025986925 -0.11364487
-0.0068491157 -1.9590645e-22 -0.029300243 -0.08135129 6.795034e-23 -0.009163342 6.812881e-23 9.760719e-18
0.10858792 0.013288378 -0.033419546 -1.5669297e-19 -0.000770362 -0.0098077245 0.0031741657 -0.08863354
7.9740874e-13 0.0024954274 -6.8723776e-23 2.3919583e-23 4.131083e-23 -0.18893331 -8.988999e-24 -0.089801624
-3.30237e-23 -8.4106923e-23 -0.0012896832 -0.00012676307 -4.0550365e-21 -9.587174e-15 -0.5217822 -4.3076214e-13
-2.2374975e-21 -9.0216505e-15 0.19420846 -3.632475e-13 -4.422011e-21 -2.4788002e-21 -9.342931e-17 3.977243e-23
-1.47856e-23 0.00040717062 -0.0841985 -2.3097114e-16 -1.673238e-22 0.15202752 -4.0462657e-22 -8.4280915e-22
2.2407436e-12 -0.075845346 -2.6738586e-23 6.5418954e-23 -3.2663132e-14 -0.28520855 9.355359e-24 -0.07070827
-8.324051e-24 -3.006982e-23 -0.30468342 -5.712068e-22 -0.3375702 -1.6149307e-22 -2.0493508e-23 -0.28818256
9.039453e-18 3.2276628e-14 3.693431e-23 6.2050015e-14 -5.327572e-25 -1.6097455e-23 -9.291527e-25 -0.65395886
4.4999e-23 -0.16784307 5.2153914e-23 6.5322113e-23 0.021550247 3.837912e-05 -1.648016e-20 4.6520937e-14
1.6983384 -6.8466876e-15 5.2965085e-21 2.3408276e-15 -0.5679082 3.9970092e-13 -2.2145806e-20 6.4075745e-21
2.2443342e-16 -1.5237315e-23 3.5570814e-23 -0.04832935 1.7021501 -1.5797642e-16 -2.441322e-22 1.1940004
-1.808977e-22 -6.47963e-21 -3.854127e-12 0.63781947 9.851573e-22 5.0522186e-23 1.1587624e-14 -0.7875051
-4.486235e-23 -0.27628985 3.47812e-23 -2.4243504e-23 1.4473053 1.8890297e-21 -0.4387343 -5.417431e-22
3.649376e-23 2.0433056 -5.952503e-17 5.191671e-13 -1.8806965e-24 -9.26764e-14 -1.7378825e-23 -7.281181e-23
8.9899245e-23 1.7396908 -2.8667098e-23 1.287369 5.7663094e-23 1.0071286e-22 -0.0036795004 0.0001437936
-3.0415043e-20 7.5876585e-15 -0.70000434 -3.46939e-13 1.8191573e-20 -3.6758854e-15 1.4052515 -5.927262e-13
2.5068671e-20 9.116514e-22 -4.0553915e-16 -2.370051e-22 6.2551754e-23 0.2128431 -0.6561277 -5.9653506e-17
-3.3031277e-22 -0.60246897 4.174485e-22 4.4172273e-21 -4.2467126e-13 -0.21047121 -2.9665354e-23 -1.706624e-23
-3.7756286e-13 1.7265085 -2.5629176e-23 0.7532877 5.440326e-23 -1.8586286e-23 -0.5850783 1.7683456e-20
1.2349546 8.8921663e-23 -3.5196342e-23 -0.8443187 -1.7555046e-17 -6.058299e-14 -9.0274894e-23 -9.012503e-14
1.5141724e-23 5.8788824e-23 -5.5420776e-24 1.4080623 -7.010586e-23 1.1366389 -7.93893e-24 -8.8803915e-23
-0.0010774299 -0.00019619809 1.2796507e-20 -1.0235438e-15 -0.68941885 -6.4212297e-13 1.3505291e-20 -4.26611e-15
1.4187816 7.310504e-14 3.7341792e-20 -5.576461e-21 -5.4004994e-16 -1.9462967e-22 9.8583935e-23 0.26353455
-0.64208364 2.8498178e-15 -1.2082146e-22 -0.40166098 1.9169727e-21 -1.046124e-21 1.6412831e-12 -0.119060755
-2.2665804e-22 -2.1126203e-23 5.626358e-14 1.5174229 -6.018758e-24 0.81738824 -2.162459e-24 2.8541918e-23
-0.81327766 -9.527029e-21 1.36998 1.9043222e-23 -1.1496141e-24 -0.50460166 2.3518144e-17 -1.8025556e-15
-9.601663e-23 -7.4993946e-14 9.2851295e-24 4.710065e-23 2.822136e-23 -0.58010215 3.3503093e-23 -0.24750525
00000000: e435 8a9a f3e5 a1b3 49c1 af1e 1435 debc
00000010: e43a abb8 a018 2cbe 28c8 e9b9 8c81 9fb8
00000020: 2707 adbd 469f 19be 861f 3eb7 275a bd3b
00000030: f909 0bbc 3157 b2ab 49e4 2abc c7d2 a33c
00000040: a867 083c 6299 2e36 54e7 80b4 e4ff fcba
00000050: bc47 91bc 5916 6bbb cd2f 439b 12a4 cbbd
00000060: 10f1 6ebe 8b8a 8dbc fb25 e9ba 5cde 6dbe
00000070: 76ef d620 2395 103a 88e2 d43c a4be e8bd
00000080: 8c6e e0bb 1cd6 6c9b 1007 f0bc 819b a6bd
00000090: 394b a41a d821 16bc b1b9 a41a b10d 3423
000000a0: 5863 de3d 7fb7 593c efe2 08bd 8bfd 38a0
000000b0: 1ef2 49ba 94b0 20bc aa05 503b 8085 b5bd
000000c0: 5b73 602b 538a 233b f529 a69a 0556 e719
000000d0: 55c4 471a bc77 41be 5edf 2d99 eae9 b7bd
000000e0: 5cb1 1f9a aa5b cb9a 960a a9ba b4eb 04b9
000000f0: e831 999d 09b5 2ca8 8593 05bf 5e7f f2aa
00000100: 7f0f 299d 0585 22a8 95de 463e 7b7d ccaa
00000110: 110f a79d f84a 3b9d ee6e d7a4 e253 401a
00000120: 5fff 8e99 8479 d539 4370 acbd 5325 85a5
00000130: 3548 4a9b 1aad 1b3e ee94 f49b 33b9 7e9c
00000140: a6ad 1d2c ce54 9bbd c44c 019a 5f2c 9e1a
00000150: 071a 13a9 db06 92be 7ef5 3419 7fcf 90bd
00000160: b402 2199 a268 119a 77ff 9bbe fca2 2c9c
00000170: 00d6 acbe af3b 439b 7833 c699 aa8c 93be
00000180: 9cbf 2623 6b5c 1129 769a 321a 66b9 8b29
00000190: 60e1 2497 5eaf 9b99 88c7 8f97 d969 27bf
000001a0: 109a 591a 0edf 2bbe 6b33 7c1a 6ef0 9d1a
000001b0: 258a b03c 44f9 2038 95a6 9b9e fd82 5129
000001c0: 2763 d93f 8cad f6a7 b018 c81d a6ac 2827
000001d0: 6f62 11bf f902 e12a 4629 d19e 4212 f21d
000001e0: 8760 8125 c45d 9399 8902 2c1a fff4 45bd
000001f0: 0ee0 d93f 6922 36a5 a191 939b 01d5 983f
00000200: 20b1 5a9b 23cb f49d e49a 87ac 2348 233f
00000210: 6ddf 941c 704f 741a 7cbe 5028 ef99 49bf
00000220: e6f0 589a dd75 8dbe 0a31 281a 0278 ea99
00000230: 4d41 b93f 26bb 0e1d c8a1 e0be 58bb 239c
00000240: 1679 301a 85c5 0240 6041 89a4 ef21 122b
00000250: 0883 1198 4fb0 d0a9 e313 a899 540c b09a
00000260: f05c d91a 30ae de3f 26a0 0a9a 82c8 a43f
00000270: ba6b 8b1a 3e82 f31a c623 71bb 4dc7 1639
00000280: 88a1 0f9f e6af 0828 7c33 33bf 2e4f c3aa
00000290: 86d0 ab1e 0f70 84a7 48df b33f 6dd6 26ab
000002a0: 54c4 ec1e cec3 891c 04c7 e9a5 c342 8f9b
000002b0: a93d 971a 8bf3 593e fcf7 27bf 378d 89a4
000002c0: 6da9 c79b 683b 1abf 0755 fc1b cde0 a61d
000002d0: 9411 efaa c485 57be ee73 0f9a f70d a599
000002e0: 8b8c d4aa 3bfe dc3f c4de f799 76d7 403f
000002f0: fd89 831a 6ac1 b399 b1c7 15bf f903 a71e
00000300: fe12 9e3f d8ff d61a f632 2a9a 4525 58bf
00000310: aeea a1a3 b76b 88a9 7445 da9a 8bf1 caa9
00000320: 1871 9219 8524 8e1a 1466 d698 633b b43f
00000330: 6d81 a99a 627d 913f ad8f 1999 f6b6 d69a
00000340: 8c38 8dba 86ba 4db9 1cb8 711e 1a82 93a6
00000350: c17d 30bf d6bd 34ab 941b 7f1e ebb3 99a7
00000360: a39a b53f 309e a429 7557 301f 39ac d29d
00000370: a7a8 1ba6 f74a 6b9b 805c ee1a 00ee 863e
00000380: 985f 24bf dc59 4d27 6e10 129b 82a6 cdbe
00000390: a5d7 101d f615 9e9c 75fd e62b 20d6 f3bd
000003a0: a201 899b f251 cc99 7e63 7d29 ea3a c23f
000003b0: e4d6 e898 5b40 513f ea4f 2798 2f05 0a1a
000003c0: f732 50bf e3f5 339e 815b af3f bc2c b819
000003d0: e8e4 b197 932d 01bf a6ea d823 48e3 01a7
000003e0: 6a27 e89a 11df a8a9 bc99 3319 c8c3 631a
000003f0: 5a78 081a 9381 14bf d202 221a 0472 7dbe

conv1.bias f4 [50]
-6.6831336e-09 -1.4102342e-07 -0.00018733113 -0.05569007 -0.00014843355 -0.19828014 -0.0009855486 -0.00027415602
-0.21300004 -0.22925988 -0.0015794776 -0.026990032 -0.05986716 -5.061461e-13 -0.039367888 -0.0374472
-0.072794154 -9.45536e-06 -5.6305576e-05 -0.011204223 -0.028704775 -0.023350429 -1.4059204e-07 -0.28108165
-0.21774422 -0.022473665 -0.0015012709 -0.2834616 -0.0009484625 -0.012806138 -0.070462614 -0.07895189
-0.021863509 -2.5810332e-05 -0.03522811 -0.16393377 -0.0005644797 -0.03479929 -0.0015848975 -0.0013433482
0.0135978665 -0.04025079 -0.088178396 -0.009426781 -0.0014788581 -0.17325774 -0.010602267 -0.008209563
-2.5481273e-12 -0.08841503
00000000: 77a1 e5b1 396c 17b4 516e 44b9 451b 64bd
00000010: d4a4 1bb9 f309 4bbe 862d 81ba 99bc 8fb9
00000020: af1c 5abe 1ac3 6abe 7906 cfba 331a ddbc
00000030: 4437 75bd ac77 0eab 3940 21bd 3c62 19bd
00000040: 1a15 95bd 76a2 1eb7 a729 6cb8 eb91 37bc
00000050: 4726 ebbc 6649 bfbc a5f5 16b4 efe9 8fbe
00000060: 57f8 5ebe b11a b8bc 4bc6 c4ba e121 91be
00000070: 3ea2 78ba d6d0 51bc b44e 90bd 87b1 a1bd
00000080: 1a1b b3bc 4483 d8b7 5a4b 10bd 41de 27be
00000090: 97f9 13ba b389 0ebd 56bc cfba 4913 b0ba
000000a0: 96c9 5e3c 03de 24bd e096 b4bd c972 1abc
000000b0: 3ed6 c1ba 7a6a 31be 22b5 2dbc 6781 06bc
000000c0: fb4e 33ac f012 b5bd

conv2.weight f4 [50, 1]
-3.0107278e-21 -5.890557e-23 -5.770823e-12 1.9539943 -2.530667e-16 1.5490495 5.6171e-16 0.0005129407
-0.46671638 0.34522578 0.001674539 -0.056644663 -2.3342273 -1.814724e-12 0.0007485818 0.013668697
1.6485591 -8.222477e-05 0.00084207277 -0.012822975 0.04342694 -0.0007026315 7.902798e-23 0.4956594
-1.8543077 0.07582681 -1.51921095e-05 -1.2849392 1.8374669e-20 0.009097869 -0.07380386 -0.6936138
-1.2667404e-06 -5.825186e-23 0.051283773 2.1090677 3.0687557e-23 0.7872158 2.8054606e-19 -1.1910196e-19
-2.3009202 0.020073008 1.61517 -4.859272e-06 4.4788294e-13 -2.3903553 0.001513733 -0.06456161
-0.0007340459 0.03217185
00000000: f27b 639d c86c 8e9a f40a cbac 7c1c fa3f
00000010: 0ee2 91a5 4147 c63f e2e6 2126 de76 063a
00000020: 73f5 eebe 6fc1 b03e 347c db3a 3c04 68bd
00000030: fb63 15c0 5366 ffab 793c 443a acf2 5f3c
00000040: fc03 d33f 1670 acb8 8cbe 5c3a 7517 52bc
00000050: 72e0 313d cd30 38ba f313 bf1a 12c7 fd3e
00000060: f459 edbf 164b 9b3d 9de1 7eb7 e378 a4bf
00000070: 398b ad1e 3a0f 153c 7a26 97bd ad90 31bf
00000080: de04 aab5 28d8 8c9a ef0e 523d f7fa 0640
00000090: 5b65 141a fa86 493f ec9a a520 5c9c 0ca0
000000a0: 4742 13c0 2670 a43c e4bd ce3f d40c a3b6
000000b0: bc22 fc2a 95fb 18c0 7368 c63a e138 84bd
000000c0: fd6c 40ba a1c6 033d
