Trained_models/faux_behave_level.pt (torch, 9679 bytes, 3 tensors)

conv1.weight f4 [18, 100]
0	0x3bdb84df	0.006699189
1	0xbcc6cb58	-0.024266884
2	0x3db4d814	0.08830276
3	0xbe1d64d7	-0.15370499
4	0xb3bb4370	-8.720133e-08
5	0xbd23d15a	-0.039994575
6	0xac6285a0	-3.2190708e-12
7	0xbd62e014	-0.05538948
8	0xbb379067	-0.0028009654
9	0xbd07c341	-0.033145193
10	0xb9463796	-0.00018903459
11	0x3a98ba0f	0.001165213
12	0xb5f19dd7	-1.8001837e-06
13	0xba2c21e9	-0.00065663323
14	0xb99ac3e7	-0.00029519128
15	0xbeadf5fd	-0.33976737
16	0xac2233a0	-2.3050242e-12
17	0xbc65ce5a	-0.014026249
18	0xb9f9f27a	-0.0004767364
19	0x38b0a02b	8.4221676e-05
20	0xaee35d68	-1.0339357e-10
21	0xb422db3b	-1.5167181e-07
22	0x9adcb5fa	-9.1283866e-23
23	0x1e5e9d9f	1.17851774e-20
24	0x3d594302	0.05304242
25	0xba21c2a4	-0.00061706663
26	0x2f0237e7	1.1843292e-10
27	0xb3c0a249	-8.970216e-08
28	0x37b9efcf	2.2165388e-05
29	0x1bf5e57d	4.0680153e-22
30	0xbc57af95	-0.013164421
31	0xb9227038	-0.00015491329
32	0xb885be5b	-6.377391e-05
33	0xb9d81284	-0.00041212526
34	0xbda7bdfc	-0.081905335
35	0xb0ca6e2a	-1.4728745e-09
36	0x391b9302	0.00014836717
37	0xb9491c8c	-0.00019179488
38	0xbcf87cd1	-0.030332955
39	0xb87b4645	-5.9908507e-05
40	0xb5dd9f47	-1.6512139e-06
41	0xbf445b25	-0.76701576
42	0xb8ae1ea5	-8.3026745e-05
43	0xb9f5e81a	-0.0004690297
44	0xb1d3b9fe	-6.162053e-09
45	0x1ab4fdc2	7.485622e-23
46	0xbe7fdab6	-0.24985775
47	0x2b01f42f	4.616888e-13
48	0xbaa051d0	-0.0012231413
49	0xbad1b5e4	-0.0015999642
50	0x2368a7ee	1.2612306e-17
51	0x3824dba6	3.930521e-05
52	0xbba21b03	-0.0049470677
53	0xbe38d2d2	-0.18049172
54	0x1c29d03c	5.6186546e-22
55	0xbaf045b9	-0.0018331326
56	0xbe1e0db8	-0.15434921
57	0xbbb9d145	-0.005670699
58	0xbeae6ec7	-0.3406889
59	0xb65ef41a	-3.3222664e-06
60	0xbac3b543	-0.001493134
61	0xb5da7c87	-1.6278508e-06
62	0xbccbe60e	-0.024889972
63	0xbc2bf001	-0.010494233
64	0xbc8bdfee	-0.017074551
65	0xbbd9811f	-0.006637707
66	0x1a225982	3.357312e-23
67	0xb9419eef	-0.00018465122
68	0xb78d46cb	-1.6841475e-05
69	0xb5c35231	-1.4552553e-06
70	0xb9bc7ec5	-0.00035952605
71	0xbb3d6e02	-0.002890468
72	0xbd87b088	-0.066254675
73	0xbccefc0f	-0.025266675
74	0xa325168b	-8.9494416e-18
75	0xb1064e5c	-1.9544109e-09
76	0xbd22c8ad	-0.03974216
77	0xb84ddae3	-4.9079663e-05
78	0xb4bab2f2	-3.47754e-07
79	0xb74675de	-1.1829163e-05
80	0x3903397d	0.0001251455
81	0xba83bbf2	-0.0010050519
82	0xbc59b965	-0.01328883
83	0xbb22d821	-0.002484806
84	0xbcf2f88a	-0.029659528
85	0xb7df1434	-2.659308e-05
86	0xb9ab9727	-0.0003272828
87	0xb214209d	-8.622149e-09
88	0xb66e7b58	-3.553656e-06
89	0xbd783ec3	-0.06060673
90	0xbd0f2acd	-0.034952927
91	0x2d2d1686	9.838913e-12
92	0xb03e87c5	-6.931454e-10
93	0xb9930aae	-0.00028045982
94	0xbbecc387	-0.007225457
95	0x3227a212	9.75753e-09
96	0xae9fc44c	-7.265352e-11
97	0x394538ff	0.00018808617
98	0xb6f3af94	-7.2624043e-06
99	0xbb5f9601	-0.003411651
100	0x1e46cc50	1.05242836e-20
101	0x9f434ee4	-4.1358113e-20
102	0xbf0d1a52	-0.55118287
103	0x25c140e7	3.3524143e-16
104	0x1be500dd	3.788543e-22
105	0x28e80e48	2.5763368e-14
106	0x2b5e1630	7.8901035e-13
107	0x27549f97	2.9507424e-15
108	0x1bd715f7	3.558296e-22
109	0x24c34e29	8.470018e-17
110	0xb9eacd00	-0.00044784695
111	0x1d8ca0ee	3.722409e-21
112	0x33c53572	9.183249e-08
113	0x1b980c92	2.5154414e-22
114	0x9a6ad03d	-4.855828e-23
115	0x3d1d370c	0.038382575
116	0x1f0b4014	2.94874e-20
117	0xbdfbb8f8	-0.12291139
118	0xb1e64f38	-6.702887e-09
119	0x9b1101c9	-1.1994696e-22
120	0x9992c420	-1.517526e-23
121	0x1a97e661	6.2824333e-23
122	0x1794d650	9.618376e-25
123	0x1a904bc0	5.9679385e-23
124	0xba648f6d	-0.0008718882
125	0x1a6342d0	4.699647e-23
126	0x1c003e49	4.243215e-22
127	0xb21e5d3f	-9.218012e-09
128	0xb3e2743a	-1.05450866e-07
129	0x18fb7a18	6.5005262e-24
130	0x236482c7	1.2387598e-17
131	0x1a6e6409	4.9298054e-23
132	0x9baa7339	-2.8198602e-22
133	0x1b037c65	1.087626e-22
134	0x9bafe9f1	-2.9102503e-22
135	0x1994c70e	1.5383239e-23
136	0x1b8aebff	2.2982694e-22
137	0x374024b0	1.1452634e-05
138	0xa0a5280f	-2.7978596e-19
139	0x1a9ced08	6.490303e-23
140	0x99ce6edb	-2.1344675e-23
141	0x3c311256	0.010807594
142	0x9a955756	-6.1766054e-23
143	0x9aad82fb	-7.1762733e-23
144	0x9a4a91a2	-4.1890262e-23
145	0x99e7f3f3	-2.398337e-23
146	0xbe83adc1	-0.257185
147	0x9a313abe	-3.6650194e-23
148	0x23a790d2	1.816751e-17
149	0x230eaa3f	7.7338864e-18
150	0x9aee93b0	-9.8673095e-23
151	0x9b07ea34	-1.1242613e-22
152	0xba88cdc4	-0.00104373
153	0xb1c6b436	-5.783046e-09
154	0x17391644	5.9804827e-25
155	0x99b67bd6	-1.8868376e-23
156	0x3b817d48	0.0039517023
157	0xab7e6e8f	-9.039236e-13
158	0x3d23c823	0.039985787
159	0x1949e170	1.0436983e-23
160	0x1a0f30c6	2.9611106e-23
161	0x1b1b315e	1.2837251e-22
162	0x2d53943f	1.2026879e-11
163	0xbdb21684	-0.08695701
164	0x9cb2fa5e	-1.184377e-21
165	0x9acad356	-8.3886673e-23
166	0x9a29fe5b	-3.5153848e-23
167	0x19ab5ecc	1.7719274e-23
168	0x999d477c	-1.6262292e-23
169	0x1a48156e	4.137634e-23
170	0x99a3a00e	-1.691845e-23
171	0x9aaf8df6	-7.2607654e-23
172	0x23ccdfb7	2.2212471e-17
173	0x9e34a00e	-9.562219e-21
174	0x9c2f3874	-5.7975607e-22
175	0x2b186e7c	5.4154576e-13
176	0x2d020933	7.391687e-12
177	0xab73be42	-8.659498e-13
178	0x1b8d48ec	2.3373618e-22
179	0x98ad05f8	-4.472548e-24
180	0x9a5595a7	-4.4168256e-23
181	0xbe800dd0	-0.25010538
182	0xbf26fd6d	-0.6523045
183	0x32d1295b	2.4349609e-08
184	0x9d91a214	-3.8548765e-21
185	0x36676f4c	3.4486466e-06
186	0xb8876776	-6.456573e-05
187	0xa7139ae4	-2.0484314e-15
188	0xb6208834	-2.3921139e-06
189	0xbf19aa70	-0.6002569
190	0xbec48672	-0.38383824
191	0xace5ee90	-6.5350572e-12
192	0x1a1fdd2b	3.3059087e-23
193	0x1a98bb01	6.316785e-23
194	0x345afb62	2.0394285e-07
195	0xb431b9a0	-1.655194e-07
196	0x982cf218	-2.2352705e-24
197	0xa13a1335	-6.304467e-19
198	0x1b7e0e05	2.1014918e-22
199	0xb9b24083	-0.0003399887
200	0x1d5257e6	2.783871e-21
201	0xa16eca4d	-8.090528e-19
202	0xbf9642bb	-1.1739115
203	0x2b1fbda2	5.6751316e-13
204	0x9be9bbbe	-3.8667942e-22
205	0x2c00c4f8	1.8299234e-12
206	0xad2e4026	-9.904999e-12
207	0x278030b1	3.557993e-15
208	0x9c74bff4	-8.098092e-22
209	0x255f9c52	1.939513e-16
210	0xb98057b4	-0.00024479406
211	0x1bfe2899	4.204701e-22
212	0x334f7cbe	4.8309396e-08
213	0x1d36b39f	2.4180361e-21
214	0x9ae73c00	-9.5636296e-23
215	0x3d06884c	0.032844827
216	0x9e643d0e	-1.2082845e-20
217	0x3ff54d1d	1.9164158
218	0xb1c52130	-5.7372276e-09
219	0x9b634b9f	-1.8801434e-22
220	0x9a4e9f23	-4.272835e-23
221	0x99f0238c	-2.4829776e-23
222	0x9a62dacf	-4.6912457e-23
223	0x1a8fb764	5.94397e-23
224	0x3b324f6e	0.0027207988
225	0x1adf414f	9.233615e-23
226	0x1b9a63f8	2.5541766e-22
227	0x319d63e9	4.58066e-09
228	0xb5c2c294	-1.4510756e-06
229	0x9a3fb3d8	-3.964315e-23
230	0xa42fab4d	-3.8092173e-17
231	0x1c3a7e8b	6.170579e-22
232	0x17ff9e80	1.6519e-24
233	0x9c69134d	-7.711818e-22
234	0x9d82f901	-3.4668177e-21
235	0x19e47317	2.3621132e-23
236	0x1c700960	7.9421456e-22
237	0x37f30e20	2.8974435e-05
238	0xa12cd027	-5.8551354e-19
239	0x1b5a09dd	1.8035724e-22
240	0x1b5519f5	1.7627334e-22
241	0x3d0323a9	0.03201643
242	0x9ae528ae	-9.47779e-23
243	0x1a397c6b	3.8357607e-23
244	0x1a914615	6.008382e-23
245	0x969e6e80	-2.5596012e-25
246	0xbf52bf04	-0.82322717
247	0x1926d314	8.624626e-24
248	0xa4af3cb2	-7.5996974e-17
249	0xa183d346	-8.932829e-19
250	0x1b3ee8dc	1.5791673e-22
251	0x1c41296c	6.391188e-22
252	0x3867056e	5.507975e-05
253	0x3705654a	7.951001e-06
254	0x1a10dc72	2.9956576e-23
255	0x1a69e705	4.8369887e-23

conv1.bias f4 [100]
0	0xbc9bce4e	-0.019019272
1	0xbd1d5234	-0.038408473
2	0xbdb9fe00	-0.0908165
3	0xbe2f0d4c	-0.17094916
4	0xb5da84af	-1.6280882e-06
5	0xbe776218	-0.24158514
6	0xad9987bb	-1.7454363e-11
7	0xbd8fc4ec	-0.07019982
8	0xbccb4dda	-0.024817396
9	0xbd3b4459	-0.04571948
10	0xbaac371a	-0.001313898
11	0xbc24ff61	-0.010070653
12	0xb57f3e9a	-9.5086e-07
13	0xbd28bdef	-0.04119676
14	0xbb99b292	-0.0046904767
15	0xbf0a5a7c	-0.5404432
16	0xb760a059	-1.3388774e-05
17	0xbe0f1e39	-0.13976373
18	0xba6d7882	-0.00090587896
19	0xba338340	-0.0006847866
20	0xad26aecd	-9.474821e-12
21	0xb658326a	-3.2215853e-06
22	0xb7d16e03	-2.496597e-05
23	0xb801c28a	-3.0937175e-05
24	0xbe04607f	-0.12927435
25	0xbc7fcbc8	-0.01561255
26	0xb936e2f6	-0.00017441422
27	0xb31f6e6c	-3.71205e-08
28	0xb85c257d	-5.2487e-05
29	0xb9b6fe82	-0.00034903368
30	0xbd4f6648	-0.050634652
31	0xbb459faf	-0.0030154993
32	0xba67cdf2	-0.0008842639
33	0xbb586807	-0.003302099
34	0xbd55dd5f	-0.05221307
35	0xb3ac0e79	-8.012007e-08
36	0xbbf14a18	-0.007363569
37	0xb940fb74	-0.0001840422
38	0xbd40dcaa	-0.04708544
39	0xbad882dc	-0.0016518491
40	0xba175525	-0.00057728804
41	0xbe8157d7	-0.2526233
42	0xba68d207	-0.0008881394
43	0xbb54848c	-0.0032427637
44	0xb1cc6e8a	-5.9497482e-09
45	0xb3de5175	-1.03524975e-07
46	0xbec9e436	-0.39431924
47	0xb9cb8a91	-0.00038822417
48	0xbbc836db	-0.006110055
49	0xbce40525	-0.027834484
50	0x28d61bb4	2.3770787e-14
51	0xbac59042	-0.0015072899
52	0xbaea75e0	-0.0017887913
53	0xbeaf5f02	-0.34252173
54	0xbb76db02	-0.003766716
55	0xbb3f631a	-0.0029203356
56	0xbed5076c	-0.41607225
57	0xbd21ba80	-0.0394845
58	0xbed685da	-0.41898996
59	0xb2962cd2	-1.748268e-08
60	0xbbf7d264	-0.0075629223
61	0xb8509ae3	-4.9735314e-05
62	0xbd1906d7	-0.03736004
63	0xbdd79751	-0.10526908
64	0xbd4f5e08	-0.050626785
65	0xbd42a171	-0.047517244
66	0xb99da57d	-0.00030068672
67	0xba1a58fc	-0.00058878935
68	0xb943c032	-0.00018668248
69	0xb9064e8c	-0.00012808497
70	0xba3391bd	-0.0006850025
71	0xbb5863e7	-0.003301853
72	0xbe0638f3	-0.13107662
73	0xbd1ebc85	-0.038754005
74	0xaf32e209	-1.626931e-10
75	0xb1489a0b	-2.9191394e-09
76	0xbd968c79	-0.07351012
77	0xb9df4067	-0.00042581858
78	0xb5bb533a	-1.3956808e-06
79	0xb9b9f6eb	-0.00035469918
80	0xbb5ca9a6	-0.0033670454
81	0xbd819484	-0.06327155
82	0xbdccedee	-0.10006319
83	0xbe2ac174	-0.16675359
84	0xbda279d6	-0.079333946
85	0xb88a3f95	-6.592196e-05
86	0xba571432	-0.00082046085
87	0xb8c7e324	-9.531368e-05
88	0xb7d6e885	-2.5619063e-05
89	0xbe2d9c02	-0.16954044
90	0xbe455ae4	-0.19272953
91	0xae365b48	-4.1463083e-11
92	0xada6d8a1	-1.8968218e-11
93	0xbb9b8948	-0.00474659
94	0xbdeb9949	-0.11503846
95	0xb38aed28	-6.469264e-08
96	0xae152ca8	-3.391834e-11
97	0xba3f1840	-0.00072896853
98	0xb97ceef2	-0.00024121607
99	0xbeb1469d	-0.34624186

conv2.weight f4 [100, 1]
0	0x3c08cfcb	0.008350323
1	0xbda8c229	-0.08240158
2	0x3fdd27d3	1.7277778
3	0xbe283616	-0.16426882
4	0x33df403d	1.03959316e-07
5	0xbe206268	-0.15662539
6	0x2cc0dd60	5.4815458e-12
7	0xbbd44bee	-0.006478778
8	0xbd3b0c6a	-0.045666136
9	0xbd8d5008	-0.069000304
10	0x3a25d933	0.00063266157
11	0xba595410	-0.00082904194
12	0xb5e8878c	-1.7324796e-06
13	0xbb64bbba	-0.0034901933
14	0x3add854c	0.0016900687
15	0xbeec340a	-0.46133453
16	0x3b3100a7	0.0027008445
17	0xc02136fc	-2.518981
18	0xbc420df3	-0.011844146
19	0x3a8bfacf	0.0010679605
20	0xb2a9cd23	-1.9767475e-08
21	0xac3409ce	-2.5584981e-12
22	0x1b1e8c79	1.3114843e-22
23	0xb3ad96d6	-8.083377e-08
24	0xbd2bd66c	-0.041952536
25	0x3a18ef46	0.00058339944
26	0xb3a56fc7	-7.7037434e-08
27	0x332567a9	3.8511335e-08
28	0xb97ba96f	-0.00024000344
29	0x2a657640	2.0380312e-13
30	0xbdb289ca	-0.087176874
31	0xba954183	-0.0011387322
32	0xb992f2cb	-0.00028028185
33	0x38050def	3.1722648e-05
34	0xbbe3c833	-0.006951356
35	0x3a9fc3fb	0.0012189144
36	0xba34b785	-0.00068938016
37	0xb815e0c0	-3.5733683e-05
38	0xbd973af6	-0.07384293
39	0xbbb17332	-0.0054153437
40	0xb93daa9d	-0.00018088003
41	0x3da7ac63	0.08187177
42	0xb1f90953	-7.247914e-09
43	0x3b8d185f	0.004305884
44	0x369c1a80	4.6522473e-06
45	0x9cb48621	-1.1946072e-21
46	0x40124620	2.28553
47	0xb7dd403e	-2.6375168e-05
48	0xbc901277	-0.01758693
49	0x3c8a5def	0.016890494
50	0xaa0bbb88	-1.2410743e-13
51	0xbababea5	-0.001424749
52	0x3c26323c	0.010143813
53	0xbe30c7e8	-0.17263758
54	0xb712844e	-8.733083e-06
55	0x289b09e7	1.7212751e-14
56	0xbdcc6e29	-0.09981949
57	0xbd262deb	-0.040571135
58	0x3faf39d5	1.3689524
59	0xac04b616	-1.8859406e-12
60	0x378ac147	1.6540884e-05
61	0x3a142703	0.0005651565
62	0xbde8abf6	-0.11360924
63	0xc01c4259	-2.4415495
64	0x3bbc3e03	0.005744697
65	0xbb9872f6	-0.0046523763
66	0x9b16e6af	-1.2482247e-22
67	0xb8afa48f	-8.375302e-05
68	0xbb41ef2a	-0.0029592016
69	0x9a83176e	-5.421818e-23
70	0xb011c898	-5.3035754e-10
71	0x3a131cc7	0.0005611893
72	0x3df56f9b	0.11984178
73	0xbd37ba0d	-0.044855166
74	0x2ac88d13	3.5625027e-13
75	0x3169694e	3.3965821e-09
76	0x3d6fc93e	0.05854153
77	0xbbb07f49	-0.0053862673
78	0xb0ebb8c4	-1.7151014e-09
79	0xb71a15bd	-9.184177e-06
80	0x3b685d35	0.0035455946
81	0xbf743d9b	-0.954065
82	0xc028c7dc	-2.6371984
83	0x3d9293d8	0.07157105
84	0x3cb0d5e9	0.021586375
85	0x37a498a7	1.9621408e-05
86	0xbb03c3d1	-0.002010573
87	0x3b86e518	0.0041166656
88	0x399f3a25	0.00030370164
89	0x400fbd27	2.24592
90	0x400acbeb	2.1686962
91	0x2e0a9f0b	3.1518826e-11
92	0xad34f52c	-1.02862545e-11
93	0x3b7795d5	0.0037778516
94	0xbe36dfe4	-0.17858845
95	0xb640c4f9	-2.8724883e-06
96	0xb7491a4d	-1.1986657e-05
97	0x3b58b4ff	0.0033066866
98	0x3911ba38	0.0001389765
99	0xbeb45629	-0.35221985
