Trained_models/faux_behave_level.pt (torch, 5327 bytes, 3 tensors)

conv1.weight f4 [16, 50]
000000 a7 07 a2 bc 12 0b 70 b8 42 90 87 c0 37 29 7f ad
       -0.01977904 -5.723077e-05 -4.2363596 -1.4504223e-11
000010 42 e6 75 bd 01 a4 4c bd 1b da c1 bd 43 9b 87 3f
       -0.060034044 -0.049961094 -0.094654284 1.0594257
000020 61 a1 7c c0 d8 3f 69 bd 8f ee 54 bd 2c 49 9e bd
       -3.9473498 -0.05694565 -0.05198532 -0.077288
000030 b2 3c fd bf eb df 48 c0 1c cf aa c0 3f c9 1c ac
       -1.9784148 -3.1386669 -5.337782 -2.2280647e-12
000040 a5 0d e6 bd ce e0 fd b3 9c c0 2b 3c 2f c7 12 b6
       -0.11233071 -1.1822122e-07 0.010482933 -2.1871635e-06
000050 d2 0a 4e c0 33 93 6e be e3 f1 3d c0 5a c9 6f bc
       -3.2194104 -0.2329834 -2.9678886 -0.014635408
000060 f8 2b 12 c0 aa 61 c4 b3 2e 7d 40 bf 21 ea 3d b6
       -2.2839336 -9.144726e-08 -0.7519101 -2.8299476e-06
000070 15 df 5e be 56 3f 57 3c 9d ee 7a bd a3 1b f0 bc
       -0.21764787 0.013137659 -0.061262716 -0.029310053
000080 f5 3a 28 40 2b b7 11 80 61 76 1e c0 0a c2 59 bc
       2.6285985 -1.626912e-39 -2.4759753 -0.013290891
000090 bb 03 01 40 9b 3f 27 81 38 f0 5b bc 3b 57 19 ba
       2.0158527 -3.071869e-38 -0.013423972 -0.0005849485
0000a0 02 37 d6 bd 77 05 0a 40 ba f6 6a bf 35 75 d2 3a
       -0.10459711 2.1565835 -0.91782725 0.0016056659
0000b0 55 bb d8 bf eb 67 0d ab 38 16 e4 00 6a 45 f4 ba
       -1.6932169 -5.023748e-13 2.0946464e-38 -0.001863641
0000c0 9f f9 9b c0 81 bc 90 ba c0 9f 1c 00 33 17 3b 80
       -4.8742213 -0.0011042507 2.628701e-39 -5.426617e-39
0000d0 d1 0d 2f 40 fa ea 02 2c 98 93 3c 01 49 14 01 00
       2.7352183 1.860455e-12 3.463604e-38 9.9112e-41
0000e0 24 7b 02 80 b7 1a 80 c0 a1 ae a3 bf f0 e8 19 80
       -2.27846e-40 -4.003261 -1.2787668 -2.37945e-39
0000f0 42 d0 a9 01 67 0f 02 80 67 04 38 bf 73 9f 67 40
       6.237963e-38 -1.89196e-40 -0.7188172 3.619107
000100 ef 1c 27 40 e3 aa 06 80 00 41 16 00 4b 5c 20 80
       2.611141 -6.12316e-40 2.043699e-39 -2.971844e-39
000110 bc 4a 94 be 84 90 8c 81 52 29 4e c0 6a f3 03 00
       -0.28963268 -5.163525e-38 -3.221272 3.62827e-40
000120 d8 db 90 bf 04 7e 10 80 61 c2 5e 40 aa a5 04 00
       -1.1317091 -1.514574e-39 3.480614 4.26771e-40
000130 7c 1e c5 b9 aa cf 1a 00 2f 6f 02 00 f4 36 89 3a
       -0.0003759748 2.462219e-39 2.23556e-40 0.0010468648
000140 00 31 02 00 7d 77 11 80 5b d2 5b 40 68 eb 65 01
       2.01249e-40 -1.604068e-39 3.434714 4.2229553e-38
000150 d7 7c 8b 40 3e d5 28 00 b5 9b d9 40 b0 80 47 00
       4.3589892 3.749917e-39 6.800257 6.566485e-39
000160 f4 9e 14 80 95 28 24 80 6d af 1f 00 c0 6f b1 bf
       -1.893732e-39 -3.320636e-39 2.909831e-39 -1.3862228
000170 1c 36 df 1f 5d 8c 08 80 89 ab d8 be 73 a1 ec 11
       9.453369e-20 -7.85037e-40 -0.4231837 3.7333735e-28
000180 68 82 22 80 d4 81 2f 80 39 a5 09 40 5f 5a 44 80
       -3.169188e-39 -4.362842e-39 2.1507094 -6.277233e-39
000190 16 42 13 87 cf e7 12 80 4b f7 62 41 dd 99 a2 ab
       -1.1078472e-34 -1.736196e-39 14.185374 -1.1553498e-12
0001a0 36 4c d8 1e 32 73 0a 93 2f 6e 16 00 01 82 c7 bf
       2.290141e-20 -1.7474844e-27 2.059907e-39 -1.5586549
0001b0 f8 81 2d c1 46 dc 01 00 0d 7c 09 a2 c1 0c 17 00
       -10.844231 1.70855e-40 -1.8632634e-18 2.116792e-39
0001c0 d9 29 99 bf 4d 22 a8 c0 3b b2 00 c1 1c 69 18 80
       -1.1965896 -5.254187 -8.043513 -2.241758e-39
0001d0 a0 8d c4 06 b1 8b 12 00 d4 80 09 40 af 4a 27 80
       7.3935105e-35 1.703151e-39 2.148488 -3.608376e-39
0001e0 dd 52 41 c1 79 79 8b 16 06 a5 ac 3f b8 e1 1c 80
       -12.08273 2.253332e-25 1.3487861 -2.652367e-39
0001f0 1d aa 02 41 2f 6a 21 00 19 f6 b7 33 0b e8 1d 00
       8.166532 3.068663e-39 8.5663665e-08 2.746471e-39
000200 db 05 69 20 20 c9 51 3a ea a0 b0 0b ff e3 3f 80
       1.9737805e-19 0.0008002687 6.803485e-32 -5.867426e-39
000210 c4 7e 5f c1 e0 98 5e 01 46 e3 05 c1 55 d0 00 80
       -13.968449 4.0884643e-38 -8.367987 -7.4735e-41
000220 e5 ed 73 40 74 3b 98 80 d6 95 15 80 e5 f4 83 8f
       3.811395 -1.3980323e-38 -1.982296e-39 -1.3011927e-29
000230 39 8d 48 0c a1 6b 6f 40 9b fc 76 23 4c 42 1d 80
       1.5449937e-31 3.7409441 1.3389178e-17 -2.687012e-39
000240 98 60 cd c0 ff 30 13 93 a0 80 34 81 44 85 be 8e
       -6.418041 -1.8578165e-27 -3.3153063e-38 -4.6966946e-30
000250 a8 07 2c 41 0c 8a 09 80 65 b8 00 00 a5 23 22 00
       10.751869 -8.76041e-40 6.6148e-41 3.135194e-39
000260 64 39 c4 40 1a 9e 97 2a f0 29 ff a2 76 33 24 8a
       6.1320057 2.6932693e-13 -6.916229e-18 -7.9059915e-33
000270 29 5c 89 0e 57 eb a4 40 79 2b 04 c1 f0 5d 2b 00
       3.3861855e-30 5.153728 -8.260613 3.982625e-39
000280 56 d4 c9 8e 2e cb 16 00 da 3b 42 bf 2b c2 07 3f
       -4.9754798e-30 2.093268e-39 -0.75872576 0.5303065
000290 2d 71 bb c0 cc b7 25 00 d4 7d 6b 9d 9a e2 1e 80
       -5.8575654 3.463847e-39 -3.1167043e-21 -2.836354e-39
0002a0 16 a5 8b be bf 49 02 80 0d 6d 7a c0 9b 40 40 80
       -0.27274388 -2.10126e-40 -3.912906 -5.900648e-39
0002b0 25 85 0e 41 2d dd 07 80 77 17 e8 c0 d0 9d 18 80
       8.907506 -7.22191e-40 -7.2528644 -2.260664e-39
0002c0 f0 a9 4e 33 a6 7c 26 80 e5 94 11 00 04 3e 4d b9
       4.811767e-08 -3.534464e-39 1.614617e-39 -0.00019573426
0002d0 1b da cd 8c 52 08 44 80 ad f2 97 40 cb 81 16 00
       -3.1716519e-31 -6.247799e-39 4.7483735 2.066942e-39
0002e0 66 78 69 41 b5 c3 a9 8b 9d b9 a0 40 c1 5b 15 00
       14.591894 -6.53909e-32 5.022658 1.96146e-39
0002f0 ee 9e 04 00 31 01 43 00 27 22 3d 93 8f 63 98 3f
       4.24355e-40 6.153406e-39 -2.3871992e-27 1.1905383
000300 2f 17 81 10 a6 cf 22 00 ec dc f9 c0 15 e5 d3 93
       5.091725e-29 3.196897e-39 -7.808218 -5.348978e-27
000310 19 04 00 80 97 17 12 80 0d df 83 40 4b 35 19 80
       -1.47e-42 -1.661501e-39 4.120978 -2.315005e-39
000320 e3 39 05 80 ad a8 00 80 af 7d a2 40 5c 54 58 aa
       -4.79943e-40 -6.051e-41 5.077842 -1.9213922e-13
000330 69 15 97 a3 6d 50 1d 00 2b 3b 12 08 19 78 c3 40
       -1.638052e-17 2.692081e-39 4.400483e-34 6.1084104
000340 b1 e1 1c 3c 36 1b 0b 00 d0 e4 25 19 dc 5b 10 80
       0.009575293 1.019952e-39 8.576508e-24 -1.502321e-39
000350 8e 62 21 40 cb 82 14 40 5a f3 55 40 bc 4a 10 00
       2.5216403 2.320483 3.342978 1.496178e-39
000360 e7 a3 e5 0e c0 a2 29 00 1f f9 06 bd bd 18 0a 80
       5.661069e-30 3.823639e-39 -0.032952424 -9.2723e-40
000370 cb 15 6c 41 34 ef 2f 80 13 23 99 c0 64 6f 09 80
       14.755321 -4.402078e-39 -4.7855315 -8.66479e-40
000380 87 6f 73 bf d0 61 11 80 7e 31 c2 3a 3d 60 11 00
       -0.9509205 -1.596292e-39 0.0014815775 1.595727e-39
000390 c2 cd c8 8e cf 7a d1 3a 9c 98 6d 92 65 b7 24 00
       -4.9501944e-30 0.0015982034 -7.497212e-28 3.371867e-39
0003a0 01 65 e5 3f 00 10 2b 00 e0 03 2a 40 2e 3c 12 80
       1.7921449 3.954666e-39 2.6564865 -1.674627e-39
0003b0 e0 35 04 c1 e2 c7 9b 01 4b f3 1e 00 39 f7 ed 01
       -8.263153 5.7224825e-38 2.842342e-39 8.74148e-38
0003c0 ff ca 59 87 d9 6b 04 c1 87 bf 8d 13 24 03 33 00
       -1.6384921e-34 -8.27633 3.5782265e-27 4.684737e-39
0003d0 ef b8 e3 40 46 23 bc 11 3e e1 83 01 43 dc d8 a0
       7.116325 2.968291e-28 4.8445007e-38 -3.673758e-19
0003e0 dc a0 a0 c0 d6 18 12 80 b5 f4 8c 9c 25 1a 1c 00
       -5.019636 -1.661948e-39 -9.327678e-22 2.580773e-39
0003f0 fb b9 d2 c0 49 02 ad 2b 62 fe 87 29 8b 47 0a a6
       -6.5852027 1.2293024e-12 6.039333e-14 -4.7975327e-16

conv1.bias f4 [50]
000000 8c 3b 0a be 70 db cb ba 45 f5 43 be 73 fc 07 ae
       -0.13499278 -0.0015553068 -0.19136532 -3.0919666e-11
000010 53 6a 33 be f8 71 0c be 58 93 21 be f9 38 0a c0
       -0.17521028 -0.1371535 -0.15778863 -2.1597273
000020 0b 40 84 bf 2e 00 fe bd 79 39 bf bd f3 59 c6 bd
       -1.0332044 -0.12402378 -0.09337134 -0.09685125
000030 00 97 01 c0 22 d9 4f bf 01 ec b8 bf b2 f3 37 b2
       -2.0248413 -0.81190693 -1.4447023 -1.0707412e-08
000040 fe b2 cd bd 36 23 85 b7 91 8a 99 bf af 3f 5d b9
       -0.10043906 -1.5871232e-05 -1.1995412 -0.00021099926
000050 9d 36 58 bf 4d 1c 2c be ea 17 75 bf 09 b8 1e bd
       -0.84458333 -0.16807671 -0.95739615 -0.03874973
000060 51 36 72 bf 6f 17 ad b7 e5 16 b2 be f9 cb 0a b9
       -0.9461413 -2.063412e-05 -0.34783092 -0.00013236691
000070 0b 00 ad be 0f 53 62 3c 26 9f 2a be 50 f9 00 be
       -0.33789095 0.013813748 -0.16662273 -0.12595105
000080 7c 8f 83 c0 9a 88 df a9 77 d1 6b be 54 4c c5 bd
       -4.111265 -9.926886e-14 -0.23029123 -0.09633699
000090 93 6d 21 c0 5d 43 00 af 51 f2 82 be 17 f0 4c bc
       -2.5223129 -1.1665464e-10 -0.25575498 -0.012508414
0000a0 e9 81 f2 bd e7 92 62 c0 ce b5 bc bf f6 e4 32 bd
       -0.11841185 -3.5402162 -1.4742982 -0.043675385
0000b0 c2 f8 ad be 38 22 21 af df b9 b8 a9 63 74 f7 bc
       -0.3397885 -1.4655022e-10 -8.203485e-14 -0.030206865
0000c0 05 4d 0f bf 91 f3 d4 bb
       -0.559769 -0.006498762

conv2.weight f4 [50, 1]
000000 a7 8f 0e bc d0 d7 e3 35 8e 4f 0e c1 dc f9 a7 ad
       -0.008701242 1.6975628e-06 -8.894423 -1.9096662e-11
000010 eb 3f 86 3d 6f fa 13 3c 73 39 fc 3d 2c 72 a6 3f
       0.0655516 0.009031876 0.12315645 1.3003592
000020 6a 5e 79 c1 db 43 0e be 1b 8d fa 3b 3c d0 ee bd
       -15.58555 -0.13893072 0.0076462156 -0.11660811
000030 b8 86 a4 3f f2 2e 30 40 34 83 60 c1 27 08 03 3a
       1.2853613 2.7528653 -14.032032 0.0004998468
000040 c6 63 e1 3d 6e a2 9b 22 46 07 3f be 12 da 6b 28
       0.110053584 4.2184813e-18 -0.18655118 1.3092407e-14
000050 63 ca f1 40 34 0c 4a bd 8e d5 bb 40 67 ff aa 3c
       7.5559554 -0.049328044 5.8698187 0.020873738
000060 c2 4f 54 40 82 a8 06 80 79 bc 3a 39 39 2c 80 27
       3.317368 -6.11462e-40 0.00017808554 3.5575083e-15
000070 cc 19 46 be e9 bf 50 3e f1 8c 47 3d 39 ab 7b bd
       -0.19345778 0.20385708 0.048718397 -0.061442588
000080 4e f9 5b 40 7c cc 02 00 f9 2c 78 40 87 78 20 3b
       3.4370914 2.57026e-40 3.877745 0.0024485902
000090 4c 48 2c c0 60 6d 03 00 55 bc 0a 00 aa 66 45 00
       -2.6919127 3.14743e-40 9.85916e-40 6.373478e-39
0000a0 d4 d2 c7 3d df 20 69 c0 dd cd fa bf ec 4b 77 37
       0.09757009 -3.6426313 -1.9594074 1.4740024e-05
0000b0 af 4c 8f c0 11 63 b7 38 3d 15 25 80 d0 d1 9d 38
       -4.478111 8.7445726e-05 -3.405532e-39 7.525424e-05
0000c0 73 9b 09 41 e5 9e 26 34
       8.600451 1.551776e-07
