Trained_models/gate_level.pt (torch, 1935 bytes, 3 tensors)

conv1.weight f4 [6, 10]
00000000: 29ca 05bb 8cc9 e7bf 6e3a eabf 7eea 02c0
00000010: 07d3 ecb8 8024 c0b9 a89f c3bf 1aa7 fcbf
00000020: 80d3 683e 6e6c 6040 4e48 1f22 5c53 f83f
00000030: d758 f13f 013c 0e40 89b6 51b6 a011 e417
00000040: 4705 f63f 641b 0340 d870 2fbf 5472 52be
00000050: 1c48 10a2 68d4 a040 6e15 a440 d94a bd40
00000060: e846 1437 8023 d498 be62 1f3a 8ee3 b140
00000070: d447 7f3f a1f2 c5c0 475f 9322 dea6 0840
00000080: 617b 0c40 50b5 2040 5fe5 b8b8 83b3 6c9b
00000090: 6bf4 1040 ef68 1540 0e21 0a40 6044 bac0
000000a0: 1411 8ba1 cdaf 89bf e87d 8cbf 01cf 9abf
000000b0: 6f07 0338 dc31 cc9b 04ce dcbe 2aba 97bf
000000c0: 4a69 de3e 30d5 723e 6984 e01f 0982 bebf
000000d0: 1752 c3bf 5254 b4bf 106e 18b4 1414 681c
000000e0: 5bf6 c5be 43ca d0bf 9cf5 74c0 206c be40
-0.0020414686 -1.8108382 -1.8299081 -2.0455623 -0.00011292664 -0.00036648288 -1.5283098 -1.9738495
0.22736931 3.506618 2.1586796e-18 1.9400439 1.8855237 2.2224123 -3.1249676e-06 1.4738604e-24
1.922036 2.0485468 -0.6853156 -0.20551425 -1.9553813e-18 5.0259285 5.127616 5.9153867
8.837997e-06 -5.483656e-24 0.00060800824 5.5590277 0.99718976 -6.185868 3.994531e-18 2.1351848
2.1950305 2.5110664 -8.8165274e-05 -1.9579466e-22 2.264918 2.3345296 2.1582675 -5.8208466
-9.423527e-19 -1.0756775 -1.0975924 -1.2094423 3.1239757e-05 -3.378119e-22 -0.43125927 -1.1853688
0.43439704 0.23714137 9.5086744e-20 -1.4883434 -1.5259427 -1.4088233 -1.4196144e-07 7.678831e-22
-0.38664517 -1.6311725 -3.8274908 5.950699

conv1.bias f4 [10]
00000000: 9121 dabc 8220 bd3e db82 b63e fe57 c53e
00000010: 0f41 adb8 dec3 f7ba 4c69 af3d 15d2 c73e
00000020: 89e5 0f40 6ad0 febf
-0.026627334 0.36938864 0.3564671 0.38543695 -8.261401e-05 -0.0018902977 0.08565006 0.39027467
2.2483847 -1.9907353

conv2.weight f4 [10, 1]
00000000: d76a 7d3b 0877 bfc0 5286 c3c0 745c e2c0
00000010: 38f4 aab7 1534 01bd 76d5 49c0 2978 d4c0
00000020: 4e7b 9740 a4e5 10c1
0.0038668418 -5.98328 -6.1101465 -7.073786 -2.0379302e-05 -0.03154381 -3.1536536 -6.639668
4.733802 -9.056065
