Trained_models/gate_level.pt (torch, 1935 bytes, 3 tensors)

conv1.weight f4 [6, 10]
00000000: 8eac f1bb d1e7 f73f acb3 f23f 9969 2db5
00000010: a7e0 14c0 a335 85bc c265 fcbf 9b2f f53f
00000020: de85 6b3d 7583 d8be 0e1b d3b9 b26a 3f40
00000030: 311a 1840 c870 c199 0087 1d40 44e9 019d
00000040: 583d 5440 be8a 0c40 3ec0 81be 5fb1 b6be
00000050: c6a2 9d3a cdde a6bf a4f0 b5bf e826 8a1c
00000060: 23af df40 ba54 811c a57a d340 5486 75bf
00000070: d005 06bf e696 e6bc d8b7 f3b8 fc70 0bc0
00000080: 6e02 cbbf 6c79 821b 322b 6440 c8ce 3f1f
00000090: 205a 6040 e6f5 83bf 19f7 1640 f59d 3740
000000a0: 275e 183a d502 2d40 2a2b 2640 849c de9b
000000b0: d7e5 aebd 1e41 231e 9935 02bf b07d 1740
000000c0: b265 2540 7524 2740 cb0d 74b9 7178 c240
000000d0: 2ac2 b840 8b0b 801c 7d6d 40bf 79a2 371f
000000e0: d985 56bf dd59 b840 e29e 5ebe 5ac7 993f
-0.0073753064 1.936762 1.8961082 -6.4601187e-07 -2.3262117 -0.016260928 -1.9718554 1.9155153
0.057500713 -0.42287794 -0.00040265213 2.9908872 2.3765986 -2.0001284e-23 2.4613647 -1.7193603e-21
3.3162441 2.1959682 -0.25341982 -0.35682198 0.001202666 -1.3036743 -1.4214063 9.142131e-22
6.990129 8.558405e-22 6.6087213 -0.95908093 -0.5235262 -0.028148126 -0.000116213865 -2.178771
-1.5860116 2.1585163e-22 3.5651364 4.061687e-20 3.5055008 -1.0309417 2.3588316 2.869016
0.00058123696 2.7032979 2.5963845 -3.6827965e-22 -0.08539932 8.642614e-21 -0.50863034 2.3670464
2.584332 2.6116002 -0.00023274792 6.0772023 5.7737017 8.473313e-22 -0.75167066 3.888615e-20
-0.83797985 5.7609696 -0.21740296 1.2013962

conv1.bias f4 [10]
00000000: e646 eebb 1104 07c0 fa63 00c0 2a1d 6cb7
00000010: 2cb0 8cbe 49d2 58bd db3a 03be f7ee fabf
00000020: 6369 ecbe 782b 1ebe
-0.0072716353 -2.1096232 -2.006102 -1.4073486e-05 -0.27478158 -0.05293492 -0.1281542 -1.9604176
-0.46174154 -0.1544627

conv2.weight f4 [10, 1]
00000000: 4b15 59b8 6631 cac0 0f3f ccc0 17fa aebb
00000010: 84c3 fac0 8b6b 253c e649 e6c0 f7e7 c6c0
00000020: e7d8 e33f c04b f63f
-5.1756662e-05 -6.31853 -6.3826976 -0.0053398716 -7.8363667 0.010096441 -7.196521 -6.215816
1.7800568 1.9241867
