Trained_models/gate_level.pt (torch, 1935 bytes, 3 tensors)

conv1.weight f4 [6, 10]
1.1180854 9.290675e-08 0.096549414 0.027068865 0.9364239 -0.9175194 -0.67750984 0.87117255
0.0035548622 -1.0433908 1.1710589 2.9670872e-07 0.21348917 -0.00089282356 -0.42734134 -0.4323467
-0.54021955 -0.42247185 0.0011232344 1.3271089 -0.8917211 -5.8773125e-08 1.6330392 0.020024696
1.122591 -0.36266986 -0.37871876 1.2690418 -0.0014754717 3.5769904 -0.58069414 -3.667759e-08
-0.22934519 0.0009138284 2.8100867 -0.62392443 -0.3547286 2.795598 0.0012021188 1.6973152
1.3094118 -1.1779715e-07 -0.034107048 -0.0018454595 -0.6235133 3.1105766 2.7341044 -0.7487101
0.00060040713 -0.47007522 3.3575852 -1.9734673e-08 1.5824876 0.004221091 -0.43049398 1.2970836
0.922906 -0.561898 -7.150044e-05 -0.3855965
00000000: 6c1d 8f3f 0784 c733 b3bb c53d 86bf dd3c
00000010: 7ab9 6f3f 8de2 6abf 4971 2dbf 2a05 5f3f
00000020: b1f8 683b d48d 85bf 42e5 953f 564b 9f34
00000030: e89c 5a3e 600c 6aba 7ccc dabe 8c5c ddbe
00000040: d44b 0abf 3b4e d8be 7e39 933a b4de a93f
00000050: d647 64bf bc6d 7cb3 6e07 d13f d50a a43c
00000060: 10b1 8f3f ddaf b9be 6de7 c1be f66f a23f
00000070: 9d64 c1ba 69ed 6440 5fa8 14bf 7087 1db3
00000080: 77d9 6abe fc8d 6f3a 76d8 3340 83b9 1fbf
00000090: fd9e b5be 14eb 3240 6a90 9d3a a041 d93f
000000a0: ce9a a73f abf7 fcb3 d5b3 0bbd 58e3 f1ba
000000b0: 919e 1fbf b013 4740 91fb 2e40 77ab 3fbf
000000c0: a464 1d3a b3ad f0be ade2 5640 0185 a9b2
000000d0: f48e ca3f 1451 8a3b b569 dcbe d606 a63f
000000e0: 9143 6c3f 8cd8 0fbf 82f2 95b8 e86c c5be

conv1.bias f4 [10]
-1.1576337 -4.193956e-07 -0.09593361 -0.044641703 -0.9292599 0.062127385 -0.09859151 -0.9964658
0.0018260807 -0.0026713936
00000000: 572d 94bf 4b29 e1b4 d778 c4bd 38da 36bd
00000010: fae3 6dbf 4979 7e3d 58ea c9bd 6218 7fbf
00000020: 1a59 ef3a 8c12 2fbb

conv2.weight f4 [10, 1]
-3.8583484 -1.02537555e-07 -1.9125931 -0.012383508 3.0390415 3.1276228 2.2570682 3.2209466
0.0019323464 -3.7160523
00000000: 2eef 76c0 9e32 dcb3 dacf f4bf 32e4 4abc
00000010: a87f 4240 f92a 4840 ce73 1040 fd23 4e40
00000020: c946 fd3a cdd3 6dc0
