Trained_models/gate_level.pt (torch, 17679 bytes, 3 tensors)

conv1.weight f4 [6, 500]
-1.178651e-10 -0.20179246 1.981091e-18 4.7653803e-14 -1.6261965e-09 2.2630318e-06 -2.8901835e-07 -2.1346348e-07
-0.0003335373 -0.10307609 -5.3653793e-09 -3.1999868e-11 -1.0408585e-13 1.5294325e-05 -0.0002302925 -5.9542293e-12
-5.2510736e-13 -3.4761535e-10 -1.5805981e-12 -0.05230037 -1.5616241e-07 -5.3524693e-12 5.4505538e-08 -4.506939e-06
1.0427248e-05 2.444164e-06 -0.026473168 -5.81329e-12 -0.50517833 -3.0004898e-12 -1.7623156e-14 2.9445279e-12
-2.7648714e-10 -0.000107144806 1.3586155e-11 -3.907677e-17 -4.225193e-05 -7.2044934e-08 0.00096909516 -1.4032417e-12
-1.1583528e-12 -1.5600136e-15 -9.951397e-09 7.7196304e-15 -5.0013085e-08 -2.182499e-12 -5.7868033e-11 2.0065988e-10
1.7072012e-10 -1.2642859e-09 0.015086458 8.313585e-08 3.1790864e-16 3.9525173e-14 -0.002300848 -4.740481e-13
2.5785896e-10 0.0010224623 -5.741609e-14 -0.0006181474 -4.435809e-19 -0.7403029 -9.8589135e-06 -0.15700911
1.8336396e-14 -1.07382304e-13 1.2404356e-05 -5.8667893e-06 0.0012270544 -5.5255236e-13 -1.9122851e-07 -9.993944e-06
1.0429679e-06 0.031327117 -2.6021377e-12 -5.3348907e-14 -4.3946418e-08 -0.44906098 9.833994e-06 -4.640051e-17
-2.4162893e-16 -9.755075e-20 -1.5406166e-06 -6.284645e-10 7.921607e-13 -6.304897e-14 -0.0063546565 -1.9794417e-15
3.7098385e-10 -0.0015443945 0.85121423 -0.0007253103 1.5722412e-14 0.0007439805 3.5001515e-06 3.271361e-20
-9.710546e-14 -2.686252e-12 -8.7259236e-13 1.4250869e-15 -1.9395985e-15 2.3651241e-15 8.91012e-16 -0.1428391
-1.9319897e-08 3.6412595e-14 -4.400574e-06 -1.6281886e-07 -6.259018e-11 0.0007071482 -4.455313e-07 -1.8852371e-06
-3.9589564e-12 4.293131e-09 -3.1594315e-08 0.002383754 -0.0015092026 9.105089e-12 -1.647913e-05 -1.671376e-08
0.0037085155 0.058253877 0.09506499 -6.8674094e-06 -2.9045424e-14 -0.0012522378 -1.7331031e-07 -1.770165e-09
-8.384791e-05 -6.1472844e-07 -4.1522763e-10 7.039434e-05 2.6061496e-05 -1.0659786e-12 0.00012749797 -1.6271322e-15
-4.0380147e-12 -0.0001950977 -5.395032e-08 -0.030040732 8.315154e-12 -2.194915e-10 -0.09358742 2.9249775e-10
1.3684818e-14 -2.8231705e-06 -1.7649154e-06 -7.0574057e-15 6.200859e-13 -2.041414e-07 -2.7259083e-12 3.6586256e-10
-1.4221819e-06 -9.983511e-15 -0.0010641129 2.3984882e-11 6.976875e-19 1.9902195e-15 -3.554835e-08 -0.52278626
-1.6538843e-14 -0.00062739453 -1.861346e-11 5.2237552e-05 0.7704632 -3.2169063e-09 -2.92245e-14 3.1409775e-09
1.9640505e-11 -0.0014402316 1.09181124e-16 -7.103938e-14 0.00016509529 -3.2092052e-07 -2.6022677e-11 0.47285253
-5.797778e-12 0.47329086 -1.8345381e-16 2.544661e-15 2.3075486e-14 -0.0001863594 1.9520567e-15 -5.9091963e-08
2.7842459e-08 -0.3846099 2.2829036e-06 -2.0079441e-15 1.9814623e-05 -1.0977618e-11 -0.00019490746 -5.697143e-12
-5.025388e-15 -0.00019709485 -2.1379905e-05 -2.010023e-10 -0.2917108 -1.5968733e-12 2.612146e-15 -6.236709e-05
0.008836555 -0.0009846812 -0.0017427264 -3.717303e-14 -0.0063008694 -1.9361414e-05 -0.06475335 -1.1929952e-05
-4.3410574e-07 -7.20507e-06 -0.0023524545 4.8003618e-05 -9.0084595e-10 -0.7475653 3.9363447e-14 -6.049365e-08
0.02208277 -3.4628027e-08 -0.00059634465 4.1973135e-07 -0.00015325405 -3.196131e-14 -5.3586904e-05 1.7018436e-09
9.129999e-12 -0.2218222 1.909276e-08 -3.774126e-15 0.27829972 -3.2835043e-08 -3.4960375e-20 5.8423932e-15
-1.1814796e-14 -2.3858995e-14 -4.7707064e-13 0.7442409 0.10975831 0.012296844 1.3490993e-15 -3.3445918e-08
1.1801532e-19 6.4113526e-13 -0.0046433825 1.264143e-14 4.78041e-12 4.153526e-08 -9.201683e-08 -5.2295716e-11
0.042170465 4.863583e-07 -1.7299925e-07 -0.78397226 -2.78827e-10 -1.542787e-05 1.2652324e-06 -0.0028286327
00000000: 1498 01af afa2 4ebe c02d 1222 189d 5629
00000010: b480 dfb0 97de 1736 612a 9bb4 6534 65b4
00000020: 9ede aeb9 8f19 d3bd 605a b8b1 a6bc 0cae
00000030: 6861 eaa9 504c 8037 ac7a 71b9 ee7e d1ac
00000040: f9cd 13ab 831a bfaf 0c73 deab ea38 56bd
00000050: 99ad 27b4 c252 bcac 7919 6a33 503a 97b6
00000060: b0f0 2e37 6b06 2436 42de d8bc 7689 ccac
00000070: 5e53 01bf 0524 53ac 3bbc 9ea8 e633 4f2c
00000080: 1b00 98af eeb2 e0b8 9a02 6f2d b535 34a4
00000090: aa37 31b8 1fb7 9ab3 e00a 7e3a 1c7d c5ab
000000a0: 0f06 a3ab 58d2 e0a6 b5f6 2ab2 8310 0b28
000000b0: f8cd 56b3 6894 19ac 9d81 7eae bca0 5c2f
000000c0: 71b5 3b2f 1bc3 adb0 312d 773c 6b88 b233
000000d0: 0943 b725 6c01 3229 d3c9 16bb c46e 05ab
000000e0: 6cc2 8d2f 2404 863a 1f4a 81a9 2b0b 22ba
000000f0: 06ec 02a1 7e84 3dbf b667 25b7 ffc6 20be
00000100: da28 a528 afcd f1a9 4e1c 5037 56db c4b6
00000110: 1dd5 a03a 9887 1bab 7e54 4db4 aaab 27b7
00000120: 1bfc 8b35 dd50 003d f21b 37ac 1a43 70a9
00000130: 99bf 3cb3 52eb e5be affc 2437 0efc 55a4
00000140: 234a 8ba5 cf55 e69f 2fc7 ceb5 42c0 2cb0
00000150: 32f9 5e2b 42f9 8da9 b93a d0bb 41a2 0ea7
00000160: 56f3 cb2f 486d caba 2de9 593f c022 3eba
00000170: 6a9d 8d28 b007 433a 25e4 6a36 547c 1a1f
00000180: 7da9 daa9 3707 3dac e89c 75ab 6d60 cd26
00000190: 47c3 0ba7 d76c 2a27 8a68 8026 6a44 12be
000001a0: e7f4 a5b2 ddfc 2329 a5a8 93b6 4fd3 2eb4
000001b0: 24a3 89ae ea5f 393a 5b31 efb4 4108 fdb5
000001c0: 1c4b 8bac c882 9331 51b2 07b3 c138 1c3b
000001d0: 70d0 c5ba ad2d 202d aa3c 8ab7 f291 8fb2
000001e0: 910a 733b 9e9b 6e3d 6fb1 c23d 996e e6b6
000001f0: 18cf 02a9 2122 a4ba 2d17 3ab4 254a f3b0
00000200: 81d7 afb8 d103 25b5 1846 e4af aca0 9338
00000210: a39e da37 ed05 96ab fab0 0539 957e eaa6
00000220: 3413 8eac 2493 4cb9 01b7 67b3 fb17 f6bc
00000230: 2048 122d 5d55 71af c3aa bfbd 66cd a02f
00000240: 1586 7628 b375 3db6 08e2 ecb5 1445 fea7
00000250: e689 2e2b f631 5bb4 99d1 3fac 9422 c92f
00000260: cce1 beb5 d1d8 33a8 b479 8bba 27f9 d22d
00000270: c7eb 4d21 1269 0f27 d3ad 18b3 52d5 05bf
00000280: faf7 94a8 bc77 24ba c9b9 a3ad a519 5b38
00000290: 143d 453f 6a10 5db1 8e9d 03a9 a9d8 5731
000002a0: 7cc2 ac2d 27c6 bcba 29c1 fb24 6af7 9fa9
000002b0: 6e1d 2d39 fb4a acb4 dce5 e4ad ba19 f23e
000002c0: befd cbac 2e53 f23e 0282 53a5 b65c 3727
000002d0: 73d8 cf28 7869 43b9 17a9 0c27 4dcc 7db3
000002e0: 372a ef32 97eb c4be fc33 1936 08b0 10a7
000002f0: 9437 a637 cc1e 41ad 1360 4cb9 4d73 c8ac
00000300: 060f b5a7 3fab 4eb9 ff58 b3b7 1e01 5daf
00000310: 1e5b 95be 6dbd e0ab 9739 3c27 14cb 82b8
00000320: 33c7 103c 6b10 81ba 326c e4ba 9669 27a9
00000330: 8677 cebb 526a a2b7 689d 84bd c126 48b7
00000340: 0a0f e9b4 14c3 f1b6 a32b 1abb 7e57 4938
00000350: 669f 77b0 7160 3fbf f746 3129 bce8 81b3
00000360: ede6 b43c ebb9 14b3 0354 1cba 7057 e134
00000370: d2b2 20b9 e2f0 0fa9 80c2 60b8 4ce6 e930
00000380: dc9d 202d 5c25 63be 6c01 a432 2bfa 87a7
00000390: 4d7d 8e3e 8306 0db3 8018 259f 917e d227
000003a0: 21d6 54a8 19e7 d6a8 9048 06ab 9286 3e3f
000003b0: f7c8 e03d b478 493c fb6c c226 2da6 0fb3
000003c0: f153 0b20 aa76 342b 8427 98bb 4eba 6328
000003d0: 1b32 a82c 8064 3233 ca9a c5b3 beff 65ae
000003e0: f0ba 2c3d 4a8e 0235 acc1 39b4 68b2 48bf
000003f0: 6949 99af 196b 81b7 0ed1 a935 9560 39bb

conv1.bias f4 [500]
-3.3626693e-10 -0.0030862847 -1.0122704e-09 -2.1870732e-12 -2.2205457e-09 -2.4533163e-05 -6.685268e-07 -8.66294e-08
-0.00038226016 -0.088857785 -1.4596479e-07 -3.920382e-11 2.2195912e-14 -0.008982513 -0.00019229959 -1.6678483e-11
-2.4641868e-12 -8.259713e-10 -1.0731416e-11 -0.053553227 -2.4137827e-07 -2.07962e-12 -2.0534068e-07 -3.1065551e-06
1.1181248e-05 -2.5611382e-06 -0.030326791 -4.029977e-12 0.078533165 -2.606474e-12 -7.7869975e-15 -6.094776e-11
-3.3184608e-10 -0.0012669114 -1.21504196e-11 -1.2492679e-16 -0.015461177 -1.6130538e-07 -0.0025534108 -9.156924e-13
-1.6876133e-12 -8.308598e-15 -1.9673095e-08 -2.1646183e-15 -6.395808e-08 -9.618618e-06 -2.0923718e-10 -1.6340558e-10
1.1808127e-10 -1.3609041e-09 0.16664371 5.6167e-08 -6.0897264e-15 -5.6406814e-14 -0.027280202 -2.5342925e-13
-4.831757e-09 0.0020452084 -3.209355e-10 -0.0013432096 -1.6954657e-09 0.03556283 -2.6549704e-05 -0.011609681
-1.5825462e-14 -3.4320463e-13 -1.1956634e-05 -1.5192735e-05 0.0015064245 4.6912444e-12 -5.4941167e-05 -0.00018057486
-1.2705414e-08 -0.1333199 -1.9466505e-12 -1.6973452e-13 -7.3450245e-08 0.021078458 1.11378195e-05 -1.353579e-10
4.5778706e-16 -2.2629995e-12 -8.367224e-07 -3.3152603e-10 -1.0000915e-11 -5.434071e-14 -0.037411924 -6.630949e-15
-2.3293867e-05 -0.079256654 -0.7931802 -0.0006498154 -0.0001276713 -0.0023157862 -7.268114e-05 -1.4950515e-09
-9.492844e-13 -8.50501e-13 -3.4624034e-13 -2.5360823e-15 -4.0935277e-15 -9.445565e-15 -4.893662e-16 0.0128081
-4.1746258e-08 -2.6013098e-14 -8.081282e-06 -2.4304146e-07 -1.8657786e-10 -0.027487349 -1.3645997e-06 -1.0610815e-06
-4.342248e-12 -1.60073e-08 -3.739495e-09 -0.0024038684 -0.0017088667 -9.870157e-12 -3.429901e-05 -1.7332544e-08
0.0040033627 -0.13692985 -0.026340742 -8.126734e-06 -1.4529863e-12 -0.003144166 -1.4180365e-07 -0.006399395
-0.00058435433 -8.511921e-07 -4.5272275e-10 -9.82694e-05 -4.9151447e-05 -1.1466278e-12 -0.005637305 -2.3232329e-15
-1.3205514e-11 -0.00014685771 -1.2254623e-05 -0.030585295 1.3665267e-12 -6.6237077e-10 0.034826096 -0.00044243404
-1.2151913e-13 -2.5833865e-06 -0.0005914815 -3.72588e-15 -1.5725262e-12 -6.822431e-07 -1.7442482e-12 -1.24786315e-08
-1.9379108e-06 -1.448149e-14 -0.009087827 -2.3544475e-11 -3.6216772e-09 -3.412076e-08 -3.929597e-08 0.05186694
-4.2027576e-14 -0.000636411 -1.5958197e-11 2.6573984e-05 -0.74897 -1.4811734e-08 -3.2816194e-14 -1.5252081e-09
-2.0340794e-10 0.00089500326 -2.3358188e-16 -1.9735998e-13 0.0009268714 -2.8343447e-07 -3.215909e-11 -0.43619546
1.0562783e-12 -0.47973782 -1.9327213e-16 -3.4747433e-08 -2.342949e-15 -0.00027329192 -6.616425e-15 -2.2855643e-07
1.3163274e-08 -0.41845074 -2.2318604e-06 -5.9713273e-15 -0.00017973552 -9.718013e-12 -0.00049378065 -3.9974205e-12
-5.014681e-14 -0.0018662122 -2.7073698e-05 -2.550064e-10 -0.22949067 -7.5465654e-13 -1.7411934e-15 -0.000113150694
-0.014814856 -0.000757897 -0.0020037761 -4.7902898e-14 -0.00724843 -0.00022334026 -0.18526772 -1.1398523e-05
-0.00018597108 -6.977604e-06 -0.002024726 -1.9886387e-05 -4.2759947e-09 0.09582235 -1.8017387e-07 -2.7589067e-07
-0.029173229 -1.4681139e-08 -0.00086997356 -1.655665e-05 -0.00015570244 -4.4776628e-14 -0.000114396425 -2.1536288e-09
-1.2037701e-06 -0.63094455 -8.581205e-09 -9.303036e-14 -0.06104392 -8.73979e-07 -1.281424e-11 -4.7819643e-15
-9.1378516e-15 -2.0582152e-14 3.1693886e-14 -0.7957097 0.032523718 -0.005115131 4.3069648e-16 -3.8590333e-06
-1.2213793e-11 -1.997739e-12 -0.00021387637 -8.8592674e-14 -1.8653242e-11 3.7042454e-07 -9.089844e-08 -7.536589e-11
0.041291595 -2.1758653e-06 -1.7378787e-07 -0.012221692 -1.1987719e-09 -3.8444516e-05 -7.499705e-06 -0.0019224226
00000000: 5ddd b8af 4443 4abb 1920 8bb0 cfe6 19ac
00000010: 4198 18b1 91cc cdb7 d074 33b5 0409 bab3
00000020: 176a c8b9 12fb b5bd 7fba 1cb4 946b 2cae
00000030: 4aec c728 642b 13bc 07a4 49b9 9bb4 92ad
00000040: d866 2dac 900a 63b0 00ca 3cad a15a 5bbd
00000050: c796 81b4 1a57 12ac 9e7b 5cb4 367a 50b6
00000060: 1897 3b37 05e0 2bb6 e46f f8bc ceca 8dac
00000070: ffd5 a03d 106a 37ac 3047 0ca8 8a06 86ae
00000080: 2f6f b6af 7e0e a6ba a0c0 55ad e107 10a5
00000090: e050 7dbc 4933 2db4 2057 27bb 4cdf 80ab
000000a0: ad82 edab a5ac 15a8 98fd a8b2 29fa 1ba7
000000b0: 5459 89b3 a65f 21b7 080f 66af 95aa 33af
000000c0: ecd4 012f 8e0a bbb0 a6a4 2a3e 453c 7133
000000d0: d067 dba7 a108 7ea9 bb7a dfbc 01ab 8eaa
000000e0: 9604 a6b1 e708 063b a86f b0af a30e b0ba
000000f0: e505 e9b0 54aa 113d 0eb7 deb7 8836 3ebc
00000100: 088b 8ea8 0035 c1aa 5a99 48b7 4de4 7eb7
00000110: 3873 c53a f90e a52c a170 66b8 b258 3db9
00000120: 0047 5ab2 0385 08be bdfb 08ac a51a 3faa
00000130: b3bb 9db3 bbac ac3c 92dc 3a37 ddd3 14af
00000140: b9f2 0326 933e 1fac 209b 60b5 2442 b6af
00000150: 1ef0 2fad 93ba 74a9 3f3d 19bd b6e7 eea7
00000160: 3367 c3b7 5051 a2bd dc0d 4bbf 6058 2aba
00000170: 81df 05b9 72c4 17bb 646c 98b8 737a cdb0
00000180: 9399 85ab 0e65 6fab 7eea c2aa 76be 36a7
00000190: 217c 93a7 fb27 2aa8 da0c 0da6 11d9 513c
000001a0: 7f4c 33b3 1f4e eaa8 d894 07b7 5d7b 82b4
000001b0: 0025 4daf 262d e1bc 4a27 b7b5 7c6a 8eb5
000001c0: 7ec7 98ac 6d80 89b2 f27c 80b1 388a 1dbb
000001d0: 0dfc dfba 3ca3 2dad 48dc 0fb8 abe2 94b2
000001e0: a42e 833b 5737 0cbe 8ac8 d7bc 0f58 08b7
000001f0: 597d ccab 5a0e 4ebb b142 18b4 04b2 d1bb
00000200: 5b2f 19ba 7a7d 64b5 10e3 f8af fb15 ceb8
00000210: f727 4eb8 9f5f a1ab 24b9 b8bb 1568 27a7
00000220: 5950 68ad d1fd 19b9 3499 4db7 038e fabc
00000230: 5052 c02b 3312 36b0 cfa5 0e3d 7ef6 e7b9
00000240: 81d1 08aa 3e5e 2db6 a70d 1bba 2d3d 86a7
00000250: 3a50 ddab 6423 37b5 2a7b f5ab 9a61 56b2
00000260: 0e0d 02b6 0b70 82a8 1ce5 14bc 7219 cfad
00000270: 38e1 78b1 2c8c 12b3 60c6 28b3 6e72 543d
00000280: 7f46 3da9 d2d4 26ba aa5e 8cad 32eb de37
00000290: 7fbc 3fbf b276 7eb2 7fca 13a9 7d9f d1b0
000002a0: 3fa6 5faf a79e 6a3a 9aa6 86a5 2435 5eaa
000002b0: 49f9 723a f02a 98b4 eb6f 0dae 0355 dfbe
000002c0: 70a8 942b 32a0 f5be ddd3 5ea5 353d 15b3
000002d0: c8d3 28a7 9f48 8fb9 c061 eea7 1d69 75b4
000002e0: b124 6232 2d3f d6be 12c7 15b6 c623 d7a7
000002f0: 6377 3cb9 0af6 2aad 0f71 01ba 90a5 8cac
00000300: 56d7 61a9 b19b f4ba 531c e3b7 f630 8caf
00000310: 9aff 6abe bc6a 54ab b3ee faa6 514b edb8
00000320: 03ba 72bc 9bad 46ba c951 03bb 48bc 57a9
00000330: 3d84 edbb 7230 6ab9 d2b6 3dbe 493c 3fb7
00000340: 3b01 43b9 2921 eab6 44b1 04bb b1d1 a6b7
00000350: 0cec 92b1 823e c43d d175 41b4 201e 94b4
00000360: b2fc eebc 5538 7cb2 f00e 64ba 23e3 8ab7
00000370: 0e44 23b9 f0a7 49a9 1de8 efb8 0aff 13b1
00000380: 3a91 a1b5 9585 21bf 8a6c 13b2 5a7c d1a9
00000390: 3109 7abd 619b 6ab5 356e 61ad d649 aca7
000003a0: e79c 24a8 3663 b9a8 90bc 0e29 a2b3 4bbf
000003b0: 9737 053d d49c a7bb 9547 f825 d87c 81b6
000003c0: 09de 56ad 1194 0cac 0044 60b9 337e c7a9
000003d0: 5e13 a4ad c3de c634 f233 c3b3 39bb a5ae
000003e0: 6021 293d 1505 12b6 729a 3ab4 7e3d 48bc
000003f0: 09c2 a4b0 7c3f 21b8 faa5 fbb6 ccf9 fbba

conv2.weight f4 [500, 1]
-1.4575764e-09 -0.05585032 -1.1853814e-07 2.7711182e-12 -3.1904936e-09 -1.386236e-16 -5.8091837e-07 7.2200304e-09
-0.00076844584 0.18107907 2.3083706e-08 1.7875154e-11 -5.1213713e-14 -0.004203266 4.260942e-05 -7.696225e-12
-1.0063517e-12 -2.919602e-10 2.0820784e-12 0.115684055 -1.2299027e-07 -2.5792133e-12 -1.7068098e-07 -2.3144107e-06
5.8961696e-06 -8.453583e-09 0.01592078 7.3835876e-14 1.3518921 -1.01436e-12 1.4276047e-14 -2.2579993e-11
-1.6415205e-10 8.456974e-06 -1.7294499e-12 -2.7511776e-16 -1.0447731e-05 -1.7333788e-07 0.0095492825 6.6328936e-13
-1.1351395e-12 2.0081384e-14 2.1769425e-08 4.3638913e-15 5.935979e-09 -5.892555e-07 2.914416e-10 1.5684144e-10
1.9836806e-10 -8.8075286e-10 0.27839914 8.602767e-08 1.8053277e-15 -7.0964657e-15 0.0010088505 -2.0290681e-13
7.30567e-07 -0.002325974 -1.4110978e-05 9.001345e-05 1.322363e-19 -2.9100826 3.4579368e-06 0.3508185
3.3181672e-14 -1.6897836e-13 -1.2759551e-07 -2.5278929e-05 0.0013661433 6.450795e-12 -2.612646e-05 9.777757e-07
1.9240862e-07 0.011146579 2.5504365e-13 -1.9913804e-13 8.1555854e-08 -1.1710415 1.0201351e-05 7.857609e-07
-1.4239686e-17 -2.6233404e-16 2.0519228e-07 -1.00120495e-10 -1.6943915e-12 -1.9380497e-14 -0.03260161 2.3361082e-15
-2.6894382e-05 0.0037147757 -2.5552652 -0.00072727277 -2.0539905e-09 -0.0073676724 -4.9070707e-07 3.9406427e-19
-3.6201792e-13 -2.6641298e-13 -1.2759414e-12 9.370289e-16 -7.969712e-16 1.7348118e-15 -2.6865903e-16 -0.020113904
6.571731e-09 4.6255527e-14 8.534922e-06 5.857721e-07 -2.4572268e-11 0.013940965 6.327955e-09 1.19409715e-05
4.442408e-12 -5.5744973e-09 -1.7537669e-08 5.799241e-05 0.0022586393 4.575556e-12 -1.8627163e-05 1.0775651e-08
0.0015230535 0.117498934 0.23488177 -1.0584689e-05 7.137217e-13 0.0034097934 -7.7002795e-08 1.4624885e-09
0.00027779027 7.179013e-08 5.1377236e-10 -1.0214086e-05 6.1848245e-05 -1.6760082e-13 -3.2268068e-05 -1.283967e-15
-1.0703986e-11 8.627273e-05 2.834605e-06 0.03858675 7.184528e-12 -1.0275364e-09 0.055700928 -3.831277e-06
-1.3424593e-13 1.434756e-06 -0.06557848 6.915789e-15 9.0330906e-13 -9.365546e-08 9.30648e-13 -1.6850181e-09
7.232236e-08 1.13405015e-14 0.0032108417 6.58216e-12 5.802238e-18 3.3041234e-09 8.072528e-09 -1.4767089
8.455807e-14 0.0010306643 -3.3839133e-11 -0.000110476 -2.1055534 -1.2422406e-08 -2.4940096e-14 -1.0792137e-09
-1.3348104e-09 -0.00039441674 8.0959594e-17 -2.4872194e-13 8.198025e-05 6.702176e-08 5.2055933e-12 1.3731446
-2.0436615e-12 -1.3992326 -3.3385913e-17 -5.216263e-08 3.2318021e-15 0.00019287095 1.7026805e-15 8.300403e-08
1.5268625e-08 0.49853247 -7.1329882e-06 4.876017e-15 -5.213421e-05 -3.5486293e-12 -0.00029808984 3.6943617e-12
-8.165382e-14 -0.00012878684 5.5915675e-06 -1.3036447e-11 0.21194607 7.0097045e-14 -4.12553e-16 0.00025229942
-0.016813982 0.00082022155 0.0009806406 3.1925847e-16 0.001856737 8.434276e-08 -0.061414212 -6.1499272e-06
3.2339309e-13 8.189142e-06 -0.0030995032 -7.177937e-06 2.438204e-09 -2.4629025 1.5266361e-13 5.2465523e-08
-0.0147609785 9.0567653e-10 -0.0029594302 4.1413696e-06 -9.7798526e-05 5.4915877e-14 4.3590217e-06 7.792041e-09
-5.472487e-07 -0.12735713 1.4099815e-08 1.4495242e-15 0.39633477 -1.7055637e-08 -8.0012785e-12 3.0864557e-16
-9.483375e-15 1.0312709e-14 -3.3986678e-13 -2.5110433 0.22434185 0.0008141526 3.1238686e-16 -3.5531808e-05
8.2256725e-16 -6.084813e-13 0.0015615273 -9.822531e-15 1.2541142e-11 2.4389635e-06 5.5548544e-10 2.0927775e-11
0.25914145 -1.4391435e-07 -2.0429859e-07 -2.7916195 5.2111626e-10 -3.1417803e-05 1.1811699e-06 -0.0005273439
00000000: e953 c8b0 4ec3 64bd 088f feb3 0700 432c
00000010: c23f 5bb1 77d2 1fa5 68f0 1bb5 0f14 f831
00000020: 8771 49ba cb6c 393e 9b49 c632 453b 9d2d
00000030: 64a5 66a9 8dbb 89bb 84b7 3238 b764 07ad
00000040: a4a1 8dab bf81 a0af 6483 122c c3eb ec3d
00000050: 4f0f 04b4 fa7e 35ac 6e44 37b4 4651 1bb6
00000060: b6d7 c536 403b 11b2 4c6c 823c 7c43 a629
00000070: cd0a ad3f 2cc2 8eab 5396 8028 a09d c6ad
00000080: b27c 34af 6de2 0d37 0066 f3ab 3798 9ea5
00000090: aa48 2fb7 c11e 3ab4 9874 1c3c 09b3 3a2b
000000a0: b6c1 9fab 85e0 b428 79ff ba32 cb39 9d27
000000b0: 6cf5 cb31 542d 1eb5 c238 a02f f172 2c2f
000000c0: a51b 5a2f 7919 72b0 558a 8e3e 36be b833
000000d0: 6b16 0227 58ad ffa7 683b 843a e873 64aa
000000e0: 2f1c 4435 5e6f 18bb 30be 6cb7 9ac5 bc38
000000f0: f81d 1c20 cb3e 3ac0 e70e 6836 7c9e b33e
00000100: dd6f 1529 b240 3eaa 3001 09b4 160e d4b7
00000110: 2a10 b33a 99f7 e22c 252a dbb7 1e3c 8335
00000120: e198 4e34 24a0 363c aa93 8f2a a235 60aa
00000130: ce23 af33 b0e4 95bf 7826 2b37 14ed 5235
00000140: 8256 83a3 ac39 97a5 d352 5c34 d42a dcae
00000150: e376 eeab 6290 aea8 4489 05bd 9755 2827
00000160: 3f9b e1b7 9873 733b 7789 23c0 73a6 3eba
00000170: 2f26 0db1 846c f1bb 22b9 03b5 4f9d e820
00000180: 48cc cbaa 28fa 95aa a292 b3ab 440a 8726
00000190: 18b6 65a6 4203 fa26 13df 9aa5 eac5 a4bc
000001a0: 8fcd e131 fe50 5029 3631 0f37 f43d 1d35
000001b0: d423 d8ad a568 643c 486d d931 1556 4837
000001c0: a74d 9c2c cc89 bfb1 bea5 96b2 e03c 7338
000001d0: ae05 143b f2fc a02c 8741 9cb7 d01f 3932
000001e0: 32a1 c73a 48a3 f03d d984 703e e594 31b7
000001f0: 12e5 482b d776 5f3b bc5c a5b3 bd00 c930
00000200: 61a4 9139 0b2b 9a33 8439 0d30 2a5d 2bb7
00000210: 86b4 8138 a6b3 3caa 9357 07b8 050a b9a6
00000220: 784e 3cad 52ed b438 253a 3e36 240d 1e3d
00000230: 7ac8 fc2c 3939 8db0 a826 643d 6b8e 80b6
00000240: c125 17aa d791 c035 034e 86bd e52a f927
00000250: 4742 7e2b a21f c9b3 21fa 822b 4e96 e7b0
00000260: a34f 9b33 d54a 4c28 fc6c 523b d496 e72c
00000270: 9710 d622 c10e 6331 5baf 0a32 cc04 bdbf
00000280: 6968 be29 5b17 873a 7ad3 14ae 5aaf e7b8
00000290: 63c1 06c0 526a 55b2 f2a3 e0a8 7553 94b0
000002a0: 7774 b7b0 b8c9 ceb9 1cae ba24 9c04 8caa
000002b0: d0ec ab38 9aed 8f33 d127 b72c 34c3 af3f
000002c0: 55cf 0fac 0e1a b3bf 21f7 19a4 6b09 60b3
000002d0: 3ae0 6827 673d 4a39 d361 f526 f33f b233
000002e0: 1028 8332 a63f ff3e e757 efb6 52ad af27
000002f0: afaa 5ab8 6cb6 79ac f148 9cb9 dafb 812c
00000300: 39de b7a9 f40a 07b9 339f bb36 f056 65ad
00000310: 6408 593e 32d8 9d29 14d2 eda5 0e47 8439
00000320: 7abd 89bc 2304 573a d788 803a 3c0a b825
00000330: c15d f33a ec1f b533 788d 7bbd 795b ceb6
00000340: db0d b62a 1964 0937 0921 4bbb 02da f0b6
00000350: 578d 2731 32a0 1dc0 4ae2 2b2a 7456 6133
00000360: 08d8 71bc 52f3 7830 00f3 41bb 18f6 8a36
00000370: 2f19 cdb8 b251 7729 b643 9236 c2dd 0532
00000380: a5e6 12b5 e869 02be a43b 7232 01e6 d026
00000390: 64ec ca3e be81 92b2 8ec2 0cad 0cec b125
000003a0: 59d6 2aa8 fac6 3928 f753 bfaa efb4 20c0
000003b0: dfb9 653e db6c 553a 2a14 b425 fd07 15b8
000003c0: c016 6d26 b345 2bab 29ac cc3a 6ef2 30a8
000003d0: 48a0 5c2d 13ad 2336 d0b0 1830 2915 b82d
000003e0: 30ae 843e e086 1ab4 2b5d 5bb4 e5a9 32c0
000003f0: 4c3e 0f30 9cc6 03b8 b088 9e35 733d 0aba
