Trained_models/gate_level.pt (torch, 17679 bytes, 3 tensors)

conv1.weight f4 [6, 500]
000000 76 b8 13 34 0b d3 ab aa 86 e8 29 a8 08 95 eb b3
       1.3757548e-07 -3.0522142e-13 -9.431805e-15 -1.0970149e-07
000010 40 f6 53 a8 74 bf 7b be 6f 82 fd 39 e2 dc be 1e
       -1.176625e-14 -0.24584752 0.000483531 2.0208387e-20
000020 8b 1c 95 b3 9c 0d 43 30 b8 c4 88 26 cc 18 a8 b3
       -6.943545e-08 7.0959927e-10 9.490216e-16 -7.82762e-08
000030 a3 22 0d b3 e4 eb 1c b3 b1 e5 9b 3a 70 6f 65 27
       -3.2860623e-08 -3.653612e-08 0.0011894015 3.1840544e-15
000040 37 a6 40 ba 05 0c e9 a5 d4 1e 23 3f 78 57 92 b6
       -0.00073489867 -4.0427202e-16 0.63718915 -4.3613218e-06
000050 04 0b 75 ac 57 65 b4 3d 1c cf 9c 3a f9 f0 76 bc
       -3.482271e-12 0.088083915 0.0011963579 -0.015072101
000060 3e eb e6 a6 74 60 cd b5 8f 62 95 26 68 ac 0c ac
       -1.6023219e-15 -1.5301762e-06 1.0365666e-15 -1.9990901e-12
000070 98 00 0f bc a4 99 85 37 3a 4f bc 39 10 ad ee 27
       -0.008728169 1.592638e-05 0.00035917183 6.6245905e-15
000080 7a 25 4c 30 1c c7 44 ad 03 95 76 bb 9c 2f 25 b7
       7.4268025e-10 -1.1185521e-11 -0.003762544 -9.845851e-06
000090 d0 4a 38 bc 54 dc 1e ba 69 7c 9e b2 0b 76 a4 3e
       -0.011248305 -0.0006060053 -1.8450196e-08 0.3212131
0000a0 28 bc 0f bb 3f 2a b6 ac c6 55 0d ac 42 31 72 ad
       -0.0021932218 -5.1774414e-12 -2.008492e-12 -1.3767045e-11
0000b0 f7 14 53 aa 1e b8 64 26 a3 0b 6a ac b4 38 2d bf
       -1.8747838e-13 7.9352916e-16 -3.325986e-12 -0.6766465
0000c0 76 cf 20 bf c6 37 0e b7 d0 57 97 aa 40 a3 a2 31
       -0.6281656 -8.476845e-06 -2.688392e-13 4.73338e-09
0000d0 c9 93 a1 b4 cb ce 17 bf d0 57 0a af f1 02 04 a7
       -3.0096115e-07 -0.59299916 -1.2582224e-10 -1.8320274e-15
0000e0 d6 7d 1b 27 96 3b dc b4 8e 85 64 aa 18 71 d2 be
       2.1578787e-15 -4.1021548e-07 -2.0296804e-13 -0.4110191
0000f0 6b 49 ac be 3f ef 57 3c 91 da 77 ac cf dd e8 b7
       -0.33649763 0.013179599 -3.522214e-12 -2.7759843e-05
000100 e3 f9 c5 b5 1e af b3 b1 25 c4 00 3f 3e 8d 46 2b
       -1.475037e-06 -5.229494e-09 0.5029929 7.0539744e-13
000110 fe 7b 6e 3e 0d b4 3d b0 b0 ed 13 bf cc 92 01 1e
       0.23289487 -6.9013667e-10 -0.5778456 6.85956e-21
000120 0d 7d 13 a6 30 27 f6 bd 64 e2 cc ba 99 25 89 b6
       -5.1170346e-16 -0.12019193 -0.0015631435 -4.087295e-06
000130 b9 16 91 b7 8a c2 0f b2 de eb 58 b3 b0 26 c8 ac
       -1.7295928e-05 -8.367929e-09 -5.050594e-08 -5.688637e-12
000140 88 c3 93 35 19 ce 80 b0 78 93 c9 28 84 3b 14 27
       1.100926e-06 -9.371802e-10 2.2379437e-14 2.057139e-15
000150 3e c8 8a 1f 43 4e 9e 23 4b 1a 4b b7 6e f0 04 29
       5.8776546e-20 1.716354e-17 -1.2105865e-05 2.9518427e-14
000160 8c 38 ea af ad 69 eb b7 78 54 08 b5 d0 9d 74 b8
       -4.260453e-10 -2.8063392e-05 -5.0786866e-07 -5.8321108e-05
000170 e8 62 d0 26 78 4a c2 36 cf 13 14 b1 52 5e 4c 3b
       1.4459708e-15 5.79032e-06 -2.1548094e-09 0.003118415
000180 4a e1 2c af a7 59 5e ab df af 9b bc 26 e6 94 2f
       -1.5723348e-10 -7.899466e-13 -0.01900476 2.7084573e-10
000190 6d de 1d b5 a0 0a 9b 33 45 09 f4 a5 a3 1e 6d b4
       -5.881073e-07 7.2196826e-08 -4.2333534e-16 -2.208349e-07
0001a0 f4 0d 83 b3 17 67 53 a6 7f f2 25 3f 42 f6 9a af
       -6.102701e-08 -7.3345043e-16 0.64823145 -2.8187414e-10
0001b0 a2 a1 bc be f6 d5 b3 28 be e7 5e b2 9b 54 e4 33
       -0.36842066 1.9965783e-14 -1.2974793e-08 1.0632467e-07
0001c0 6a a4 37 b7 d8 c3 e1 b3 88 ca 01 b4 53 43 09 bb
       -1.0945931e-05 -1.0513003e-07 -1.2087742e-07 -0.002094467
0001d0 6c be 3a b4 14 fc ab be cd a8 49 23 57 41 92 ab
       -1.7391875e-07 -0.33590758 1.0931977e-17 -1.0392059e-12
0001e0 9e 8b 57 b5 43 b2 6f b3 96 5d d4 ac 84 41 dc bb
       -8.029691e-07 -5.5808652e-08 -6.0357925e-12 -0.0067216773
0001f0 4d 12 98 a9 3e d6 c4 a7 2f 1b cc bd eb ec 97 34
       -6.753331e-14 -5.463321e-15 -0.09966122 2.8298322e-07
000200 12 ef 14 3f 12 9a 90 b2 ac 53 17 2d 3d 97 ae ad
       0.5817729 -1.683387e-08 8.601935e-12 -1.9848673e-11
000210 3b 9f 09 aa 48 5a 7f af c8 61 94 b4 02 dc c2 ae
       -1.2223289e-13 -2.3224189e-10 -2.7638293e-07 -8.86118e-11
000220 cc fb 51 3e 52 a8 5f af 94 f4 cf b1 05 8c 33 b5
       0.20506209 -2.0341531e-10 -6.052298e-09 -6.688645e-07
000230 84 7a 25 34 b0 5b 87 aa 92 7a 86 ba dc c3 94 ab
       1.5411393e-07 -2.4044438e-13 -0.0010259917 -1.0570394e-12
000240 67 5f 6b 38 b7 cf f8 2f 12 aa bb b3 b2 d7 f2 36
       5.6117216e-05 4.5258527e-10 -8.738802e-08 7.2372723e-06
000250 ff 64 4f 34 4b 3e 80 b2 ad b4 99 b3 70 c7 81 29
       1.931512e-07 -1.4929489e-08 -7.1574824e-08 5.763348e-14
000260 09 44 0e b5 dc f5 e3 a6 76 98 61 b4 1e bf 17 bb
       -5.2998126e-07 -1.581793e-15 -2.1010223e-07 -0.0023154686
000270 fd 85 a8 aa 4b 21 e6 bb 39 0c 61 b7 ad e7 d4 b6
       -2.9935768e-13 -0.007023012 -1.3413891e-05 -6.345063e-06
000280 50 85 56 b9 0c 24 97 22 7c 7e bc 36 c9 3f d3 a7
       -0.00020458293 4.09668e-18 5.6175613e-06 -5.863342e-15
000290 0f db b9 27 e2 cb 00 35 ce e5 13 2a e4 1d 13 34
       5.158532e-15 4.7980404e-07 1.3135952e-13 1.3701316e-07
0002a0 f2 bf a2 a9 40 33 1f bd f0 1b b7 26 d4 14 a1 af
       -7.2275424e-14 -0.038867235 1.2705748e-15 -2.930053e-10
0002b0 8f 44 f4 28 11 c9 36 b6 64 91 65 3e 29 18 58 31
       2.7119174e-14 -2.723715e-06 0.22418743 3.144587e-09
0002c0 f4 50 28 ad 25 a5 89 ae fe 03 88 a6 40 dd f0 bb
       -9.56767e-12 -6.259374e-11 -9.437978e-16 -0.007350594
0002d0 84 49 1e 25 8a 39 c0 b0 35 3f 0f 33 59 38 16 29
       1.3729224e-16 -1.3986192e-09 3.335227e-08 3.3355565e-14
0002e0 ca 0e da 29 5c ef 6d 2a 5f 93 00 2e 16 af 1e 3f
       9.68371e-14 2.1132873e-13 2.9234722e-11 0.6198591
0002f0 ca 93 1d ba ae b0 86 2e a6 ce 7e ab 2e b8 53 b7
       -0.0006011097 6.124999e-11 -9.052571e-13 -1.2619463e-05
000300 e5 40 79 2b 55 f2 89 a6 01 86 d1 26 09 cc 18 aa
       8.855263e-13 -9.571969e-16 1.453861e-15 -1.3571101e-13
000310 e2 4d a2 b8 a7 70 78 37 b6 bf 53 b8 8e af fd a7
       -7.739269e-05 1.4808181e-05 -5.0484865e-05 -7.0411943e-15
000320 1c ee c6 ad e8 2e ce bb 4a ef bd bc 12 80 3f b3
       -2.2615736e-11 -0.0062922128 -0.023185391 -4.4587132e-08
000330 65 18 4d a5 fa ce 96 b5 3e 48 2f af 5e 37 c1 25
       -1.7789181e-16 -1.1236109e-06 -1.5941823e-10 3.3517681e-16
000340 b6 40 1c aa 85 25 29 bf 73 aa 17 3d 12 71 11 be
       -1.3878034e-13 -0.66072875 0.037027787 -0.14203289
000350 82 5a 0e 3a de 56 06 2e e1 04 96 38 94 74 2b bf
       0.0005430357 3.0545226e-11 7.153466e-05 -0.6697476
000360 11 9a 59 38 e6 85 26 3e 66 13 96 32 e6 2d 19 ba
       5.1880317e-05 0.16262016 1.747112e-08 -0.0005843326
000370 3a 51 01 a9 e8 7f ae a5 f0 1b b5 31 3a 8f 0d 28
       -2.8714207e-14 -3.027086e-16 5.2709694e-09 7.85813e-15
000380 88 f4 cb 2a 51 ea 2c a7 d6 f2 ad bc e3 a4 63 b9
       3.6229721e-13 -2.3996818e-15 -0.021233957 -0.00021709832
000390 bb 56 a1 a9 d8 cc 0f 2e 32 40 6b b0 09 74 46 ae
       -7.1648816e-14 3.2696373e-11 -8.558373e-10 -4.5123048e-11
0003a0 86 ec e0 b0 c4 4c c9 bc 32 fe 01 3d 82 6a 9d 3d
       -1.6365369e-09 -0.024572738 0.03173656 0.076863304
0003b0 2d a1 23 2c 60 84 80 37 ac e1 d0 a5 b0 6e 07 ae
       2.3253164e-12 1.5320431e-05 -3.623517e-16 -3.0793756e-11
0003c0 0e f4 59 a9 ac fb 1b a7 42 aa 91 28 3a b1 8c 2c
       -4.8395363e-14 -2.1647003e-15 1.6172071e-14 3.9987154e-12
0003d0 de 87 eb 34 16 9e a0 a7 ce fe 1b b9 e8 e7 c2 bb
       4.3871017e-07 -4.458032e-15 -0.00014876874 -0.0059480555
0003e0 c0 02 a2 a3 fb 89 6b b6 73 f2 97 26 5d f1 3d 28
       -1.756524e-17 -3.5098044e-06 1.0543446e-15 1.0543945e-14
0003f0 29 9b 3a 2c 15 cf 8e ae aa 0d d6 b2 c2 70 61 bd
       2.651832e-12 -6.4941975e-11 -2.4919093e-08 -0.055039175

conv1.bias f4 [500]
000000 6e 75 b9 33 70 fa 9c aa 4b 9d 53 a8 bc e0 c4 b3
       8.636094e-08 -2.7884943e-13 -1.174696e-14 -9.16784e-08
000010 48 47 12 a8 23 5d 42 3b 07 4f e5 b9 0a 6e 30 28
       -8.120085e-15 0.0029657565 -0.00043737164 9.7938235e-15
000020 de cb 8c b3 5b a1 97 b0 16 a9 44 a6 d6 57 8e b4
       -6.556341e-08 -1.1032556e-09 -6.8230314e-16 -2.651347e-07
000030 1f b6 ca b1 68 8d 61 b2 1e 5d 51 bb 74 76 41 a8
       -5.8996785e-09 -1.3128876e-08 -0.0031946371 -1.0739338e-14
000040 1e 3c 78 ba bc 6a 8f a6 eb e6 20 bf 8a 16 e6 b6
       -0.00094694074 -9.951549e-16 -0.6285235 -6.857158e-06
000050 7b 79 d1 ad dc bb c0 bd ec 67 50 bd 2f 6e 38 3b
       -2.3814497e-11 -0.09410831 -0.050880358 0.0028141846
000060 1c 4c 82 a6 3f b0 9b b8 65 74 31 a6 6e 9e d1 ac
       -9.041192e-16 -7.423804e-05 -6.1566955e-16 -5.9577265e-12
000070 6b 2d cf bb 71 a2 5b b7 4b 64 55 b9 bb ff 01 a9
       -0.006322553 -1.30912385e-05 -0.00020350625 -2.8865565e-14
000080 c7 d7 4d b2 5f 09 15 ae e3 df c1 bd 6d 30 91 b6
       -1.1981633e-08 -3.3887e-11 -0.09466531 -4.3269742e-06
000090 42 d2 95 bc b8 f7 b1 bb bb 6a 6e b2 f6 23 be be
       -0.018288735 -0.0054311417 -1.3877691e-08 -0.3713681
0000a0 34 be 8e bb 5d 8e d6 ad 70 6e c4 ac 5f 28 3d ae
       -0.00435617 -2.4392205e-11 -5.582916e-12 -4.300948e-11
0000b0 0c 18 fe 29 a9 e9 15 a7 bf 83 75 2b 31 c5 37 3d
       1.12840374e-13 -2.0804571e-15 8.722432e-13 0.04486579
0000c0 b9 ad c2 3d 6f 29 2f b7 99 60 56 2a cd f8 b2 b7
       0.09505791 -1.044046e-05 1.9040532e-13 -2.133511e-05
0000d0 9b 9c c1 b4 6f 46 96 bb f5 7a 07 af 81 4e 0f 26
       -3.6062997e-07 -0.004586033 -1.2321862e-10 4.9719484e-16
0000e0 cb a6 7d a9 70 54 44 b4 7e 35 24 ab 9c 11 dd 3d
       -5.6321955e-14 -1.828464e-07 -5.833874e-13 0.10794374
0000f0 e2 40 87 3d ec e5 47 bd 2d 42 ce ac eb 7f 5d ba
       0.06604172 -0.048803255 -5.862219e-12 -0.0008449542
000100 f9 c9 dd b5 02 34 f2 b1 88 cc dc be 0d 72 99 2a
       -1.6524565e-06 -7.0490396e-09 -0.43124795 2.7257398e-13
000110 ee 02 05 3d eb e5 50 b0 e5 02 3e 3d de 7f 15 ab
       0.032473497 -7.599669e-10 0.04638948 -5.3112885e-13
000120 fe 91 42 a6 3d f0 6d bf ad 32 91 ba 44 f1 93 b5
       -6.7505127e-16 -0.929447 -0.0011077725 -1.1022571e-06
000130 16 d1 bc b7 af 30 1d b4 b5 69 b2 b3 e9 99 ac ae
       -2.250871e-05 -1.4639475e-07 -8.307999e-08 -7.8489944e-11
000140 7c 95 8e b3 ae 86 ca b0 77 a4 da a8 94 86 e0 a6
       -6.639581e-08 -1.4735713e-09 -2.4274187e-14 -1.55796e-15
000150 06 6d 39 af cf fb a7 b0 97 2e 0b b7 f7 be ad ab
       -1.6864385e-10 -1.2222418e-09 -8.295893e-06 -1.2345393e-12
000160 9e 6d a2 af 6c d5 98 b7 42 0a d5 b4 33 ad 90 b8
       -2.9545516e-10 -1.8219194e-05 -3.9681805e-07 -6.898716e-05
000170 f9 1d 83 a7 bb 1c dc b8 61 a1 e1 b0 a4 4f 2f bb
       -3.63923e-15 -0.00010495769 -1.6416771e-09 -0.002675035
000180 e7 57 3b af f2 94 86 ab 6b b1 d6 3c 58 73 b7 b1
       -1.703878e-10 -9.562613e-13 0.026207646 -5.339114e-09
000190 97 38 a0 b5 15 63 d3 b4 ba 24 a1 a5 4e d6 a2 b4
       -1.1937399e-06 -3.9373904e-07 -2.7953935e-16 -3.033078e-07
0001a0 ba d5 82 b3 5b a8 26 a6 4e e1 1c bf d5 86 7e af
       -6.0924734e-08 -5.7820984e-16 -0.6128129 -2.3149067e-10
0001b0 12 ab a7 3d 6f fe 19 a8 bc f6 94 b3 0a f1 03 32
       0.08186926 -8.548378e-15 -6.936668e-08 7.6800095e-09
0001c0 d6 c2 00 b7 ec f8 c5 31 63 87 09 b5 5e 88 2e ba
       -7.674758e-06 5.7617537e-09 -5.123349e-07 -0.00066578935
0001d0 a0 e2 6c b4 47 fc a9 be 08 17 ca af 26 ce 29 ac
       -2.2061658e-07 -0.33200285 -3.675995e-10 -2.413078e-12
0001e0 33 eb 0b b5 a2 00 27 b3 8e ac 8f ad 40 dc b9 bb
       -5.2123795e-07 -3.8883293e-08 -1.6333847e-11 -0.005672008
0001f0 70 77 3b ab bc 80 32 a7 08 9e 95 be 75 c7 80 b4
       -6.66015e-13 -2.477225e-15 -0.2922213 -2.3986982e-07
000200 ab 2d 2d bf 97 58 eb b2 5e a3 ec ad 5b 2a 8e ae
       -0.6764781 -2.7397887e-08 -2.6902643e-11 -6.464936e-11
000210 0a f2 53 a8 c8 8f 55 af 90 86 c2 b4 4d 82 09 b0
       -1.1765337e-14 -1.9423319e-10 -3.6233223e-07 -5.002548e-10
000220 9f 5d e5 3d 43 e7 29 af ce f6 e8 b1 a4 8b 01 b6
       0.111994974 -1.5452621e-10 -6.780147e-09 -1.930378e-06
000230 32 38 bf b3 a5 4a fd aa 9d 02 60 ba 75 23 1f ac
       -8.9043525e-08 -4.4993623e-13 -0.0008545311 -2.2614942e-12
000240 8d 67 9d bb 38 ce 14 b2 06 33 a7 b3 7a f4 aa b6
       -0.004803604 -8.6616225e-09 -7.7858246e-08 -5.0948556e-06
000250 14 a6 8b b7 4f 79 81 b5 54 76 c2 b8 1f 5e c1 a9
       -1.6647427e-05 -9.646554e-07 -9.272681e-05 -8.587249e-14
000260 30 e1 a8 32 07 08 a7 a7 41 c7 53 b5 eb bb 6c bb
       1.9660177e-08 -4.6360515e-15 -7.889358e-07 -0.003612275
000270 9b 10 08 28 13 e0 b0 bd 1b 7a 48 b7 b0 55 ef b5
       7.553117e-15 -0.08636489 -1.1949359e-05 -1.7831826e-06
000280 ec 63 f4 b9 8d 7d fc b0 41 f6 4e ba 5c c9 2f aa
       -0.00046613754 -1.8371097e-09 -0.0007894971 -1.5612983e-13
000290 97 ae 8a a8 ed 1a 27 b4 36 5b 41 ab e4 00 6f b4
       -1.5396794e-14 -1.5562883e-07 -6.8693955e-13 -2.2258934e-07
0002a0 7f c7 2e aa a3 74 b6 bc ab 9b 66 a7 9e 2e d9 ae
       -1.5523519e-13 -0.022272414 -3.20033e-15 -9.8762984e-11
0002b0 d8 0c b6 b0 e8 d8 1e b6 70 70 a6 3d 01 18 ce b2
       -1.3245893e-09 -2.367009e-06 0.081269145 -2.3992472e-08
0002c0 73 fa 8b ab 15 fc 66 2c a2 8a 09 a6 6e 82 e2 bb
       -9.946058e-13 3.28249e-12 -4.7719306e-16 -0.006912521
0002d0 e3 77 80 b2 8c 10 d9 b1 7c c5 cf 31 41 a8 a4 a8
       -1.495568e-08 -6.3174124e-09 6.0469443e-09 -1.8280626e-14
0002e0 20 a6 ad aa 19 2b 2e ac 93 33 1a b0 af c7 2b bf
       -3.0846246e-13 -2.4750811e-12 -5.6098165e-10 -0.6710157
0002f0 c9 04 80 ba dd 1e a6 ae 49 46 83 ab a9 99 94 b9
       -0.0009767051 -7.5542884e-11 -9.327618e-13 -0.00028343246
000300 42 9d 91 b2 09 4e d9 a6 a3 d0 a1 a7 51 38 b4 ac
       -1.6951734e-08 -1.5078551e-15 -4.491268e-15 -5.12216e-12
000310 d6 78 26 b8 5e fe 1e b7 9b f9 24 b8 2a b3 26 a8
       -3.969002e-05 -9.476758e-06 -3.933311e-05 -9.253701e-15
000320 6c 63 c3 ad 6d db dd bb 9e 25 a4 bc cb 13 7a b4
       -2.2213086e-11 -0.0067705424 -0.020037469 -2.3290265e-07
000330 e2 42 9e b1 cd 23 7f b5 fe 04 48 af 12 ca 72 a7
       -4.606009e-09 -9.5047e-07 -1.8191668e-10 -3.369379e-15
000340 04 92 55 29 16 d6 42 3d 90 90 40 bc e1 82 e0 bd
       4.742215e-14 0.04756745 -0.011753216 -0.10962463
000350 9a 7a 38 bb 46 4b 15 2c a0 a4 d1 b8 88 21 01 bb
       -0.0028149248 2.1215959e-12 -9.9965604e-05 -0.0019703824
000360 30 db 78 b5 b1 6a 04 bd e2 a4 6d b3 1e 41 df b9
       -9.270616e-07 -0.03232831 -5.5330823e-08 -0.0004258239
000370 e7 ee 54 a9 b7 ff ab a5 4a 85 6e b4 1a 15 95 a7
       -4.728067e-14 -2.983705e-16 -2.2213968e-07 -4.1378686e-15
000380 d4 02 b2 ac 12 02 0c a6 0f 26 45 bd b4 e3 bd ba
       -5.0593783e-12 -4.8575063e-16 -0.048132 -0.0014487416
000390 58 09 76 a9 73 1c 25 b8 e6 46 52 b0 1d 5b 66 ae
       -5.4631077e-14 -3.936556e-05 -7.649831e-10 -5.237687e-11
0003a0 d0 a9 eb ad 09 2f 05 be 2a bd 0d be cb 4e 4f 3c
       -2.6791819e-11 -0.13006224 -0.13841692 0.012653063
0003b0 e2 5f 4a ae d4 a4 e3 b9 c2 c9 93 a6 c5 0d 5f af
       -4.6014643e-11 -0.0004341962 -1.0254861e-15 -2.0286624e-10
0003c0 ce e2 a3 a9 9a 5a b0 a6 1f 94 a3 b2 88 6a 32 ad
       -7.2779985e-14 -1.2237011e-15 -1.9043055e-08 -1.0141783e-11
0003d0 10 d1 b3 b4 6a 95 c3 a8 b5 33 43 b9 75 39 71 bb
       -3.349346e-07 -2.1714147e-14 -0.00018615912 -0.0036807929
0003e0 80 68 03 a7 f9 ee 4f b6 42 29 6c 28 96 b5 97 a8
       -1.8236552e-15 -3.0984504e-06 1.3109578e-14 -1.6843118e-14
0003f0 bb 02 f6 ad a0 7f 7e ae 2c b7 33 b8 45 38 b3 3c
       -2.7968175e-11 -5.7866267e-11 -4.2847518e-05 0.021877417

conv2.weight f4 [500, 1]
000000 5e ca 99 33 bb 8e b1 29 21 2d 3b a7 11 35 00 32
       7.161428e-08 7.885139e-14 -2.5975928e-15 7.4626465e-09
000010 da 94 86 a8 8f d9 1f bf dd d1 6b ba 9f 6d 84 21
       -1.4941543e-14 -0.62441343 -0.00089958106 8.973684e-19
000020 64 f5 04 b3 a2 b1 1c b0 58 07 4b 26 a9 29 25 b4
       -3.0956826e-08 -5.70049e-10 7.0439726e-16 -1.5381978e-07
000030 97 49 c0 b2 6f 54 cb b1 c6 47 21 bc 7a 9d 83 27
       -2.2385207e-08 -5.9176766e-09 -0.009843772 3.653054e-15
000040 96 22 ae ba f0 32 1c a6 f9 14 f9 bf 76 c9 6b b6
       -0.0013285454 -5.4192406e-16 -1.9459525 -3.5134995e-06
000050 a0 2b 60 2d 6f a0 70 3e 9a 5e 53 bd 32 1c 9d 3c
       1.27426125e-11 0.234987 -0.05160389 0.019178484
000060 b1 7f 4f 27 c4 ce 9c 36 69 ec 5c 26 1e 81 d5 ac
       2.8796242e-15 4.673233e-06 7.664823e-16 -6.068159e-12
000070 96 25 dd 39 41 95 4c 38 80 da 57 b9 8b 15 2e a9
       0.00042180408 4.8776394e-05 -0.00020585395 -3.8654447e-14
000080 16 ce 3d b0 f5 91 66 2b dc ba a1 3d 88 6b 9c b6
       -6.9050665e-10 8.191497e-13 0.07896969 -4.6616806e-06
000090 96 f7 b9 bb 6d 06 13 3a 12 89 de 32 f9 51 6b bf
       -0.0056752665 0.00056085625 2.5906534e-08 -0.91921955
0000a0 79 d4 6e bb 68 e9 02 ad 26 7c 04 2e 4e af 3e 2f
       -0.0036442562 -7.441471e-12 3.012359e-11 1.734268e-10
0000b0 e0 d4 02 2a a3 e8 f6 a5 4f 04 d0 29 87 6f 19 c0
       1.1620175e-13 -4.2831838e-16 9.237803e-14 -2.397432
0000c0 49 e2 ec bf 84 98 37 37 3c 9a 89 aa 23 ad 20 37
       -1.8506557 1.094316e-05 -2.444311e-13 9.577055e-06
0000d0 00 ec 2c 2f f7 71 08 c0 83 1d d8 ad 04 7f cd a7
       1.5727153e-10 -2.1319559 -2.4569463e-11 -5.703664e-15
0000e0 6e 90 9b 26 ce b8 64 b4 85 c9 8f aa 26 f1 93 3f
       1.0794433e-15 -2.1301386e-07 -2.5541735e-13 1.1557968
0000f0 71 ec a7 3f 24 e6 b7 3d 25 bd 39 2d 9b 7c 4d b6
       1.3119031 0.08979443 1.0558031e-11 -3.061991e-06
000100 97 57 d7 b4 f5 fc b6 32 c4 bd ae 3f 21 94 77 2a
       -4.01106e-07 2.130262e-08 1.3651662 2.19894e-13
000110 4e 4a d9 3e 0c c8 a3 2f 7b c6 16 c0 f0 33 62 a9
       0.42439502 2.979167e-10 -2.3558643 -5.022713e-14
000120 c9 89 92 a5 c4 d2 e1 be 57 61 12 bb 11 29 3e 36
       -2.542033e-16 -0.44106114 -0.002233585 2.833611e-06
000130 6d dd 08 38 42 52 16 b3 59 44 a9 b3 8c 04 f9 ac
       3.2631146e-05 -3.499941e-08 -7.882108e-08 -7.0775105e-12
000140 e1 49 3a 34 e6 14 73 2e f6 f8 4b a9 b1 be 50 a6
       1.7349477e-07 5.5270365e-11 -4.5290994e-14 -7.242293e-16
000150 a2 ab 61 21 7e 1e 85 b1 bc a8 1b b3 98 29 83 a9
       7.646012e-19 -3.874276e-09 -3.6242213e-08 -5.824784e-14
000160 5f b5 81 2f ea 35 f5 36 da 99 d4 b4 3f c1 18 b7
       2.3593835e-10 7.3078454e-06 -3.960002e-07 -9.1049e-06
000170 42 b4 cb 26 20 9d 04 b9 12 d6 bf 2e 83 7f 8f ba
       1.4134814e-15 -0.00012647035 8.723701e-11 -0.0010948036
000180 72 43 97 ae 7a 21 06 2b 88 82 20 3b d7 ec f5 af
       -6.878666e-11 4.765282e-13 0.0024491865 -4.4733525e-10
000190 98 f8 23 b5 7b 9e 0d b5 41 21 b0 25 18 a6 da b4
       -6.1083983e-07 -5.275721e-07 3.0553667e-16 -4.0726513e-07
0001a0 5b 45 26 33 6a f9 b6 26 ac b5 cf bf 11 d9 79 b0
       3.8712965e-08 1.2696391e-15 -1.6227317 -9.089414e-10
0001b0 c8 cb 8e 3f e3 84 4b a8 d0 62 0a 34 70 fd a7 b3
       1.1155939 -1.1297579e-14 1.28882e-07 -7.8226435e-08
0001c0 b6 9b 41 b7 b5 21 80 b4 7b 2f 90 35 f9 b4 d2 3a
       -1.1539951e-05 -2.3866383e-07 1.0742655e-06 0.0016075663
0001d0 cd c1 e8 b2 b8 ec 40 3c 5a c6 15 a3 e0 06 00 2c
       -2.7096485e-08 0.011775188 -8.119309e-18 1.819371e-12
0001e0 80 c2 8f 34 40 23 81 31 8b 9b 80 2b 8c af 56 bb
       2.6777343e-07 3.7584016e-09 9.138119e-13 -0.0032758443
0001f0 f2 50 de a8 a1 e7 95 27 e9 64 8c 3d b3 41 80 b5
       -2.4682056e-14 4.160694e-15 0.068551846 -9.555864e-07
000200 bc 42 f4 bf 0e 1f 84 33 1f 6b 3a ad e4 4c 16 ae
       -1.9082866 6.152378e-08 -1.0596662e-11 -3.4174344e-11
000210 f0 4c f4 27 2b 66 76 ae 2f 4c a0 b4 d3 23 17 30
       6.780702e-15 -5.6024668e-11 -2.9857753e-07 5.498439e-10
000220 e4 ad 04 3f fc 01 e6 ad b9 a1 86 31 61 2a 82 36
       0.51827836 -2.6148854e-11 3.918299e-09 3.8792355e-06
000230 98 f5 df b3 1a 35 74 aa a1 e1 65 ba 9e 95 88 2b
       -1.042892e-07 -2.1689977e-13 -0.0008769278 9.704908e-13
000240 41 1d 3a ba 47 e9 a9 2a 52 92 ba b2 f4 c5 4d b7
       -0.0007099696 3.01823e-13 -2.1719789e-08 -1.2265042e-05
000250 0f a4 b3 a9 bc fb ca b7 39 9c 3a 30 c9 28 0d a9
       -7.9776565e-14 -2.41975e-05 6.788841e-10 -3.1343665e-14
000260 98 4a b0 b3 62 d5 04 27 3d 05 b3 35 09 e2 61 3a
       -8.209207e-08 1.8434355e-15 1.3338064e-06 0.0008616751
000270 00 44 c8 a8 93 32 cf bd 5f 5a ed 35 7a 7b 8e 35
       -2.223395e-14 -0.10117068 1.7684177e-06 1.0615761e-06
000280 8b f6 95 39 54 50 4c a1 87 2a 20 39 60 65 11 aa
       0.00028603183 -6.92242e-19 0.00015274632 -1.2913759e-13
000290 aa a9 77 a7 1d 7d 95 33 af 1d 00 aa 38 88 97 33
       -3.437011e-15 6.961111e-08 -1.1378982e-13 7.0562635e-08
0002a0 2c 4c 23 28 82 d2 ee bc eb 1c 80 27 5c fd 37 ad
       9.064835e-15 -0.029153112 3.555849e-15 -1.0458603e-11
0002b0 17 b5 40 33 c9 a7 6b b7 83 05 05 3f 49 89 cb 33
       4.4868184e-08 -1.4046157e-05 0.51961535 9.477896e-08
0002c0 a1 36 b1 2b 7a 7e 81 2d 3d 06 35 a6 a7 41 43 bb
       1.2591769e-12 1.4721769e-11 -6.2805444e-16 -0.002979377
0002d0 68 68 25 b2 55 95 46 b1 7f fc b7 31 75 93 a9 28
       -9.628003e-09 -2.8897678e-09 5.3547065e-09 1.8826718e-14
0002e0 a9 5b 31 2a 82 24 fd aa b7 29 fc ae fb 8a 03 c0
       1.5752559e-13 -4.496716e-13 -1.1467043e-10 -2.0553577
0002f0 27 15 e8 ba 10 41 0e af 3c 43 8a aa 2a af 15 bd
       -0.0017706499 -1.293794e-10 -2.4560378e-13 -0.036544003
000300 57 25 16 38 62 bb 30 a6 a4 fa e9 a7 4c 2a 43 ab
       3.5797562e-05 -6.131622e-16 -6.4942236e-15 -6.9336615e-13
000310 0f 60 5a 38 b7 36 30 b6 e5 f4 2e b7 19 5e ef a7
       5.206471e-05 -2.6257892e-06 -1.0428227e-05 -6.6437847e-15
000320 6c ee 5f ae 65 68 8b ba 17 7a 24 3d 79 87 24 b1
       -5.091609e-11 -0.001063597 0.040155496 -2.3942148e-09
000330 91 b2 9f b2 38 d0 a0 b6 f2 42 43 ad 6d f2 7c 26
       -1.8591239e-08 -4.7926114e-06 -1.10993315e-11 8.775861e-16
000340 a3 9e 4b 29 2e 1d 0a c0 9f 27 b8 bc e0 ec 12 be
       4.521265e-14 -2.158031 -0.02247983 -0.14348173
000350 aa 5f 84 b9 34 db df ac f0 70 82 b8 39 f9 11 c0
       -0.00025248277 -6.3623776e-12 -6.219919e-05 -2.2808363
000360 2d 89 58 37 10 df c8 3e e9 f1 30 33 84 5d 9f 38
       1.2906542e-05 0.39232683 4.119821e-08 7.5991295e-05
000370 72 7c 27 28 03 7e 84 26 78 67 c3 34 5f 6f 49 28
       9.297347e-15 9.193495e-16 3.6396864e-07 1.1181891e-14
000380 51 34 da 2c 3c cc 7f a6 7e 16 73 bd 0a fb 2f bb
       6.201741e-12 -8.8747686e-16 -0.059347622 -0.0026852512
000390 50 ea dc a5 7b 63 fb b7 04 01 a9 b0 18 ee 03 2f
       -3.8322693e-16 -2.9967856e-05 -1.2296657e-09 1.1998968e-10
0003a0 54 11 97 b1 f3 cf ed 3d 2c 88 eb 3d b0 d6 90 bc
       -4.3966484e-09 0.11611929 0.11500582 -0.017680496
0003b0 6d 8c 7f 2d 29 79 a4 38 47 80 79 a5 ac c2 77 2f
       1.4526253e-11 7.842697e-05 -2.1640769e-16 2.253368e-10
0003c0 48 9b 81 a8 be 71 eb 26 3f 9b 4d b6 e2 67 23 ad
       -1.438922e-14 1.6337231e-15 -3.0637746e-06 -9.288544e-12
0003d0 2d 98 16 b4 70 e9 04 24 27 20 93 b9 67 76 01 bb
       -1.40252e-07 2.8820667e-17 -0.0002806198 -0.0019754411
0003e0 e0 c8 8f a6 bd da 52 b5 74 e7 26 a9 9a 6f 32 28
       -9.977066e-16 -7.85494e-07 -3.7060158e-14 9.905185e-15
0003f0 36 57 1d ad 94 d5 2e 2e 60 2b f9 36 82 da eb 3d
       -8.9437815e-12 3.9752715e-11 7.425828e-06 0.115162864
